…
=None, tokenizer=None, train_subset='train', truncate_source=False, update_freq=[1], upsample_primary=1, use_bmuf=False, user_dir=None, valid_subset='valid', validate_interval=1, warmup_init_lr=-1, warmup_updates=4000, weight_decay=0.0)\r\n| [en] dictionary: 8784 types\r\n| [ga] dictionary: 258848 types\r\n| loaded 4051 examples from: data-bin-0108_bpe2text/AistNMT/valid.en-ga.en\r\n| loaded 4051 examples from: data-bin-0108_bpe2text/AistNMT/valid.en-ga.ga\r\n| data-bin-0108_bpe2text/AistNMT valid en-ga 4051 examples\r\nTransformerModel(\r\n  (encoder): TransformerEncoder(\r\n    (embed_tokens): Embedding(8784, 512, padding_idx=1)\r\n    (embed_positions): SinusoidalPositionalEmbedding()\r\n    (layers): ModuleList(\r\n      (0): TransformerEncoderLayer(\r\n        (self_attn): MultiheadAttention(\r\n          (k_proj): Linear(in_features=512, out_features=512, bias=True)\r\n          (v_proj): Linear(in_features=512, out_features=512, bias=True)\r\n          (q_proj): Linear(in_features=512, out_features=512, bias=True)\r\n          (out_proj): Linear(in_features=512, out_features=512, bias=True)\r\n        )\r\n        (self_attn_layer_norm): LayerNorm((512,), eps=1e-05, elementwise_affine=True)\r\n        (fc1): Linear(in_features=512, out_features=2048, bias=True)\r\n        (fc2): Linear(in_features=2048, out_features=512, bias=True)\r\n        (final_layer_norm): LayerNorm((512,), eps=1e-05, elementwise_affine=True)\r\n      )\r\n      (1): TransformerEncoderLayer(\r\n        (self_attn): MultiheadAttention(\r\n          (k_proj): Linear(in_features=512, out_features=512, bias=True)\r\n          (v_proj): Linear(in_features=512, out_features=512, bias=True)\r\n          (q_proj): Linear(in_features=512, out_features=512, bias=True)\r\n          (out_proj): Linear(in_features=512, out_features=512, bias=True)\r\n        )\r\n        (self_attn_layer_norm): LayerNorm((512,), eps=1e-05, elementwise_affine=True)\r\n        (fc1): Linear(in_features=512, out_features=2048, bias=True)\r\n        (fc2): Linear(in_features=2048, out_features=512, bias=True)\r\n        (final_layer_norm): LayerNorm((512,), eps=1e-05, elementwise_affine=True)\r\n      )\r\n      (2): TransformerEncoderLayer(\r\n        (self_attn): MultiheadAttention(\r\n          (k_proj): Linear(in_features=512, out_features=512, bias=True)\r\n          (v_proj): Linear(in_features=512, out_features=512, bias=True)\r\n          (q_proj): Linear(in_features=512, out_features=512, bias=True)\r\n          (out_proj): Linear(in_features=512, out_features=512, bias=True)\r\n        )\r\n        (self_attn_layer_norm): LayerNorm((512,), eps=1e-05, elementwise_affine=True)\r\n        (fc1): Linear(in_features=512, out_features=2048, bias=True)\r\n        (fc2): Linear(in_features=2048, out_features=512, bias=True)\r\n        (final_layer_norm): LayerNorm((512,), eps=1e-05, elementwise_affine=True)\r\n      )\r\n      (3): TransformerEncoderLayer(\r\n        (self_attn): MultiheadAttention(\r\n          (k_proj): Linear(in_features=512, out_features=512, bias=True)\r\n          (v_proj): Linear(in_features=512, out_features=512, bias=True)\r\n          (q_proj): Linear(in_features=512, out_features=512, bias=True)\r\n          (out_proj): Linear(in_features=512, out_features=512, bias=True)\r\n        )\r\n        (self_attn_layer_norm): LayerNorm((512,), eps=1e-05, elementwise_affine=True)\r\n        (fc1): Linear(in_features=512, out_features=2048, bias=True)\r\n        (fc2): Linear(in_features=2048, out_features=512, bias=True)\r\n        (final_layer_norm): LayerNorm((512,), eps=1e-05, elementwise_affine=True)\r\n      )\r\n      (4): TransformerEncoderLayer(\r\n        (self_attn): MultiheadAttention(\r\n          (k_proj): Linear(in_features=512, out_features=512, bias=True)\r\n          (v_proj): Linear(in_features=512, out_features=512, bias=True)\r\n          (q_proj): Linear(in_features=512, out_features=512, bias=True)\r\n          (out_proj): Linear(in_features=512, out_features=512, bias=True)\r\n        )\r\n        (self_attn_layer_norm): LayerNorm((512,), eps=1e-05, elementwise_affine=True)\r\n        (fc1): Linear(in_features=512, out_features=2048, bias=True)\r\n        (fc2): Linear(in_features=2048, out_features=512, bias=True)\r\n        (final_layer_norm): LayerNorm((512,), eps=1e-05, elementwise_affine=True)\r\n      )\r\n      (5): TransformerEncoderLayer(\r\n        (self_attn): MultiheadAttention(\r\n          (k_proj): Linear(in_features=512, out_features=512, bias=True)\r\n          (v_proj): Linear(in_features=512, out_features=512, bias=True)\r\n          (q_proj): Linear(in_features=512, out_features=512, bias=True)\r\n          (out_proj): Linear(in_features=512, out_features=512, bias=True)\r\n        )\r\n        (self_attn_layer_norm): LayerNorm((512,), eps=1e-05, elementwise_affine=True)\r\n        (fc1): Linear(in_features=512, out_features=2048, bias=True)\r\n        (fc2): Linear(in_features=2048, out_features=512, bias=True)\r\n        (final_layer_norm): LayerNorm((512,), eps=1e-05, elementwise_affine=True)\r\n      )\r\n    )\r\n  )\r\n  (decoder): TransformerDecoder(\r\n    (embed_tokens): Embedding(258848, 512, padding_idx=1)\r\n    (embed_positions): SinusoidalPositionalEmbedding()\r\n    (layers): ModuleList(\r\n      (0): TransformerDecoderLayer(\r\n        (self_attn): MultiheadAttention(\r\n          (k_proj): Linear(in_features=512, out_features=512, bias=True)\r\n          (v_proj): Linear(in_features=512, out_features=512, bias=True)\r\n          (q_proj): Linear(in_features=512, out_features=512, bias=True)\r\n          (out_proj): Linear(in_features=512, out_features=512, bias=True)\r\n        )\r\n        (self_attn_layer_norm): LayerNorm((512,), eps=1e-05, elementwise_affine=True)\r\n        (encoder_attn): MultiheadAttention(\r\n          (k_proj): Linear(in_features=512, out_features=512, bias=True)\r\n          (v_proj): Linear(in_features=512, out_features=512, bias=True)\r\n          (q_proj): Linear(in_features=512, out_features=512, bias=True)\r\n          (out_proj): Linear(in_features=512, out_features=512, bias=True)\r\n        )\r\n        (encoder_attn_layer_norm): LayerNorm((512,), eps=1e-05, elementwise_affine=True)\r\n        (fc1): Linear(in_features=512, out_features=2048, bias=True)\r\n        (fc2): Linear(in_features=2048, out_features=512, bias=True)\r\n        (final_layer_norm): LayerNorm((512,), eps=1e-05, elementwise_affine=True)\r\n      )\r\n      (1): TransformerDecoderLayer(\r\n        (self_attn): MultiheadAttention(\r\n          (k_proj): Linear(in_features=512, out_features=512, bias=True)\r\n          (v_proj): Linear(in_features=512, out_features=512, bias=True)\r\n          (q_proj): Linear(in_features=512, out_features=512, bias=True)\r\n          (out_proj): Linear(in_features=512, out_features=512, bias=True)\r\n        )\r\n        (self_attn_layer_norm): LayerNorm((512,), eps=1e-05, elementwise_affine=True)\r\n        (encoder_attn): MultiheadAttention(\r\n          (k_proj): Linear(in_features=512, out_features=512, bias=True)\r\n          (v_proj): Linear(in_features=512, out_features=512, bias=True)\r\n          (q_proj): Linear(in_features=512, out_features=512, bias=True)\r\n          (out_proj): Linear(in_features=512, out_features=512, bias=True)\r\n        )\r\n        (encoder_attn_layer_norm): LayerNorm((512,), eps=1e-05, elementwise_affine=True)\r\n        (fc1): Linear(in_features=512, out_features=2048, bias=True)\r\n        (fc2): Linear(in_features=2048, out_features=512, bias=True)\r\n        (final_layer_norm): LayerNorm((512,), eps=1e-05, elementwise_affine=True)\r\n      )\r\n      (2): TransformerDecoderLayer(\r\n        (self_attn): MultiheadAttention(\r\n          (k_proj): Linear(in_features=512, out_features=512, bias=True)\r\n          (v_proj): Linear(in_features=512, out_features=512, bias=True)\r\n          (q_proj): Linear(in_features=512, out_features=512, bias=True)\r\n          (out_proj): Linear(in_features=512, out_features=512, bias=True)\r\n        )\r\n        (self_attn_layer_norm): LayerNorm((512,), eps=1e-05, elementwise_affine=True)\r\n        (encoder_attn): MultiheadAttention(\r\n          (k_proj): Linear(in_features=512, out_features=512, bias=True)\r\n          (v_proj): Linear(in_features=512, out_features=512, bias=True)\r\n          (q_proj): Linear(in_features=512, out_features=512, bias=True)\r\n          (out_proj): Linear(in_features=512, out_features=512, bias=True)\r\n        )\r\n        (encoder_attn_layer_norm): LayerNorm((512,), eps=1e-05, elementwise_affine=True)\r\n        (fc1): Linear(in_features=512, out_features=2048, bias=True)\r\n        (fc2): Linear(in_features=2048, out_features=512, bias=True)\r\n        (final_layer_norm): LayerNorm((512,), eps=1e-05, elementwise_affine=True)\r\n      )\r\n      (3): TransformerDecoderLayer(\r\n        (self_attn): MultiheadAttention(\r\n          (k_proj): Linear(in_features=512, out_features=512, bias=True)\r\n          (v_proj): Linear(in_features=512, out_features=512, bias=True)\r\n          (q_proj): Linear(in_features=512, out_features=512, bias=True)\r\n          (out_proj): Linear(in_features=512, out_features=512, bias=True)\r\n        )\r\n        (self_attn_layer_norm): LayerNorm((512,), eps=1e-05, elementwise_affine=True)\r\n        (encoder_attn): MultiheadAttention(\r\n          (k_proj): Linear(in_features=512, out_features=512, bias=True)\r\n          (v_proj): Linear(in_features=512, out_features=512, bias=True)\r\n          (q_proj): Linear(in_features=512, out_features=512, bias=True)\r\n          (out_proj): Linear(in_features=512, out_features=512, bias=True)\r\n        )\r\n        (encoder_attn_layer_norm): LayerNorm((512,), eps=1e-05, elementwise_affine=True)\r\n        (fc1): Linear(in_features=512, out_features=2048, bias=True)\r\n        (fc2): Linear(in_features=2048, out_features=512, bias=True)\r\n        (final_layer_norm): LayerNorm((512,), eps=1e-05, elementwise_affine=True)\r\n      )\r\n      (4): TransformerDecoderLayer(\r\n        (self_attn): MultiheadAttention(\r\n          (k_proj): Linear(in_features=512, out_features=512, bias=True)\r\n          (v_proj): Linear(in_features=512, out_features=512, bias=True)\r\n          (q_proj): Linear(in_features=512, out_features=512, bias=True)\r\n          (out_proj): Linear(in_features=512, out_features=512, bias=True)\r\n        )\r\n        (self_attn_layer_norm): LayerNorm((512,), eps=1e-05, elementwise_affine=True)\r\n        (encoder_attn): MultiheadAttention(\r\n          (k_proj): Linear(in_features=512, out_features=512, bias=True)\r\n          (v_proj): Linear(in_features=512, out_features=512, bias=True)\r\n          (q_proj): Linear(in_features=512, out_features=512, bias=True)\r\n          (out_proj): Linear(in_features=512, out_features=512, bias=True)\r\n        )\r\n        (encoder_attn_layer_norm): LayerNorm((512,), eps=1e-05, elementwise_affine=True)\r\n        (fc1): Linear(in_features=512, out_features=2048, bias=True)\r\n        (fc2): Linear(in_features=2048, out_features=512, bias=True)\r\n        (final_layer_norm): LayerNorm((512,), eps=1e-05, elementwise_affine=True)\r\n      )\r\n      (5): TransformerDecoderLayer(\r\n        (self_attn): MultiheadAttention(\r\n          (k_proj): Linear(in_features=512, out_features=512, bias=True)\r\n          (v_proj): Linear(in_features=512, out_features=512, bias=True)\r\n          (q_proj): Linear(in_features=512, out_features=512, bias=True)\r\n          (out_proj): Linear(in_features=512, out_features=512, bias=True)\r\n        )\r\n        (self_attn_layer_norm): LayerNorm((512,), eps=1e-05, elementwise_affine=True)\r\n        (encoder_attn): MultiheadAttention(\r\n          (k_proj): Linear(in_features=512, out_features=512, bias=True)\r\n          (v_proj): Linear(in_features=512, out_features=512, bias=True)\r\n          (q_proj): Linear(in_features=512, out_features=512, bias=True)\r\n          (out_proj): Linear(in_features=512, out_features=512, bias=True)\r\n        )\r\n        (encoder_attn_layer_norm): LayerNorm((512,), eps=1e-05, elementwise_affine=True)\r\n        (fc1): Linear(in_features=512, out_features=2048, bias=True)\r\n        (fc2): Linear(in_features=2048, out_features=512, bias=True)\r\n        (final_layer_norm): LayerNorm((512,), eps=1e-05, elementwise_affine=True)\r\n      )\r\n    )\r\n  )\r\n)\r\n| model transformer, criterion CrossEntropyCriterion\r\n| num. model params: 313696256 (num. trained: 313696256)\r\n| training on 2 GPUs\r\n| max tokens per GPU = 4096 and max sentences per GPU = None\r\n| no existing checkpoint found checkpoints/AistTran_demuted_0108_bpe2text_enga/checkpoint_last.pt\r\n| loading train 
…
\r\n2020-08-01 01:36:21 | INFO | fairseq.tasks.translation | [en] dictionary: 6632 types\r\n2020-08-01 01:36:21 | INFO | fairseq.data.data_utils | loaded 7283 examples from: data-bin/iwslt14.tokenized.de-en/valid.de-en.de\r\n2020-08-01 01:36:21 | INFO | fairseq.data.data_utils | loaded 7283 examples from: data-bin/iwslt14.tokenized.de-en/valid.de-en.en\r\n2020-08-01 01:36:21 | INFO | fairseq.tasks.translation | data-bin/iwslt14.tokenized.de-en valid de-en 7283 examples\r\n2020-08-01 01:36:22 | INFO | fairseq_cli.train | TransformerModel(\r\n  (encoder): TransformerEncoder(\r\n    (embed_tokens): Embedding(8848, 512, padding_idx=1)\r\n    (embed_positions): SinusoidalPositionalEmbedding()\r\n    (layers): ModuleList(\r\n      (0): TransformerEncoderLayer(\r\n        (self_attn): MultiheadAttention(\r\n          (k_proj): Linear(in_features=512, out_features=512, bias=True)\r\n          (v_proj): Linear(in_features=512, out_features=512, bias=True)\r\n          (q_proj): Linear(in_features=512, out_features=512, bias=True)\r\n          (out_proj): Linear(in_features=512, out_features=512, bias=True)\r\n        )\r\n        (self_attn_layer_norm): LayerNorm((512,), eps=1e-05, elementwise_affine=True)\r\n        (fc1): Linear(in_features=512, out_features=1024, bias=True)\r\n        (fc2): Linear(in_features=1024, out_features=512, bias=True)\r\n        (final_layer_norm): LayerNorm((512,), eps=1e-05, elementwise_affine=True)\r\n      )\r\n      (1): TransformerEncoderLayer(\r\n        (self_attn): MultiheadAttention(\r\n          (k_proj): Linear(in_features=512, out_features=512, bias=True)\r\n          (v_proj): Linear(in_features=512, out_features=512, bias=True)\r\n          (q_proj): Linear(in_features=512, out_features=512, bias=True)\r\n          (out_proj): Linear(in_features=512, out_features=512, bias=True)\r\n        )\r\n        (self_attn_layer_norm): LayerNorm((512,), eps=1e-05, elementwise_affine=True)\r\n        (fc1): Linear(in_features=512, out_features=1024, bias=True)\r\n        (fc2): Linear(in_features=1024, out_features=512, bias=True)\r\n        (final_layer_norm): LayerNorm((512,), eps=1e-05, elementwise_affine=True)\r\n      )\r\n      (2): TransformerEncoderLayer(\r\n        (self_attn): MultiheadAttention(\r\n          (k_proj): Linear(in_features=512, out_features=512, bias=True)\r\n          (v_proj): Linear(in_features=512, out_features=512, bias=True)\r\n          (q_proj): Linear(in_features=512, out_features=512, bias=True)\r\n          (out_proj): Linear(in_features=512, out_features=512, bias=True)\r\n        )\r\n        (self_attn_layer_norm): LayerNorm((512,), eps=1e-05, elementwise_affine=True)\r\n        (fc1): Linear(in_features=512, out_features=1024, bias=True)\r\n        (fc2): Linear(in_features=1024, out_features=512, bias=True)\r\n        (final_layer_norm): LayerNorm((512,), eps=1e-05, elementwise_affine=True)\r\n      )\r\n      (3): TransformerEncoderLayer(\r\n        (self_attn): MultiheadAttention(\r\n          (k_proj): Linear(in_features=512, out_features=512, bias=True)\r\n          (v_proj): Linear(in_features=512, out_features=512, bias=True)\r\n          (q_proj): Linear(in_features=512, out_features=512, bias=True)\r\n          (out_proj): Linear(in_features=512, out_features=512, bias=True)\r\n        )\r\n        (self_attn_layer_norm): LayerNorm((512,), eps=1e-05, elementwise_affine=True)\r\n        (fc1): Linear(in_features=512, out_features=1024, bias=True)\r\n        (fc2): Linear(in_features=1024, out_features=512, bias=True)\r\n        (final_layer_norm): LayerNorm((512,), eps=1e-05, elementwise_affine=True)\r\n      )\r\n      (4): TransformerEncoderLayer(\r\n        (self_attn): MultiheadAttention(\r\n          (k_proj): Linear(in_features=512, out_features=512, bias=True)\r\n          (v_proj): Linear(in_features=512, out_features=512, bias=True)\r\n          (q_proj): Linear(in_features=512, out_features=512, bias=True)\r\n          (out_proj): Linear(in_features=512, out_features=512, bias=True)\r\n        )\r\n        (self_attn_layer_norm): LayerNorm((512,), eps=1e-05, elementwise_affine=True)\r\n        (fc1): Linear(in_features=512, out_features=1024, bias=True)\r\n        (fc2): Linear(in_features=1024, out_features=512, bias=True)\r\n        (final_layer_norm): LayerNorm((512,), eps=1e-05, elementwise_affine=True)\r\n      )\r\n      (5): TransformerEncoderLayer(\r\n        (self_attn): MultiheadAttention(\r\n          (k_proj): Linear(in_features=512, out_features=512, bias=True)\r\n          (v_proj): Linear(in_features=512, out_features=512, bias=True)\r\n          (q_proj): Linear(in_features=512, out_features=512, bias=True)\r\n          (out_proj): Linear(in_features=512, out_features=512, bias=True)\r\n        )\r\n        (self_attn_layer_norm): LayerNorm((512,), eps=1e-05, elementwise_affine=True)\r\n        (fc1): Linear(in_features=512, out_features=1024, bias=True)\r\n        (fc2): Linear(in_features=1024, out_features=512, bias=True)\r\n        (final_layer_norm): LayerNorm((512,), eps=1e-05, elementwise_affine=True)\r\n      )\r\n    )\r\n  )\r\n  (decoder): TransformerDecoder(\r\n    (embed_tokens): Embedding(6632, 512, padding_idx=1)\r\n    (embed_positions): SinusoidalPositionalEmbedding()\r\n    (layers): ModuleList(\r\n      (0): TransformerDecoderLayer(\r\n        (self_attn): MultiheadAttention(\r\n          (k_proj): Linear(in_features=512, out_features=512, bias=True)\r\n          (v_proj): Linear(in_features=512, out_features=512, bias=True)\r\n          (q_proj): Linear(in_features=512, out_features=512, bias=True)\r\n          (out_proj): Linear(in_features=512, out_features=512, bias=True)\r\n        )\r\n        (self_attn_layer_norm): LayerNorm((512,), eps=1e-05, elementwise_affine=True)\r\n        (encoder_attn): MultiheadAttention(\r\n          (k_proj): Linear(in_features=512, out_features=512, bias=True)\r\n          (v_proj): Linear(in_features=512, out_features=512, bias=True)\r\n          (q_proj): Linear(in_features=512, out_features=512, bias=True)\r\n          (out_proj): Linear(in_features=512, out_features=512, bias=True)\r\n        )\r\n        (encoder_attn_layer_norm): LayerNorm((512,), eps=1e-05, elementwise_affine=True)\r\n        (fc1): Linear(in_features=512, out_features=1024, bias=True)\r\n        (fc2): Linear(in_features=1024, out_features=512, bias=True)\r\n        (final_layer_norm): LayerNorm((512,), eps=1e-05, elementwise_affine=True)\r\n      )\r\n      (1): TransformerDecoderLayer(\r\n        (self_attn): MultiheadAttention(\r\n          (k_proj): Linear(in_features=512, out_features=512, bias=True)\r\n          (v_proj): Linear(in_features=512, out_features=512, bias=True)\r\n          (q_proj): Linear(in_features=512, out_features=512, bias=True)\r\n          (out_proj): Linear(in_features=512, out_features=512, bias=True)\r\n        )\r\n        (self_attn_layer_norm): LayerNorm((512,), eps=1e-05, elementwise_affine=True)\r\n        (encoder_attn): MultiheadAttention(\r\n          (k_proj): Linear(in_features=512, out_features=512, bias=True)\r\n          (v_proj): Linear(in_features=512, out_features=512, bias=True)\r\n          (q_proj): Linear(in_features=512, out_features=512, bias=True)\r\n          (out_proj): Linear(in_features=512, out_features=512, bias=True)\r\n        )\r\n        (encoder_attn_layer_norm): LayerNorm((512,), eps=1e-05, elementwise_affine=True)\r\n        (fc1): Linear(in_features=512, out_features=1024, bias=True)\r\n        (fc2): Linear(in_features=1024, out_features=512, bias=True)\r\n        (final_layer_norm): LayerNorm((512,), eps=1e-05, elementwise_affine=True)\r\n      )\r\n      (2): TransformerDecoderLayer(\r\n        (self_attn): MultiheadAttention(\r\n          (k_proj): Linear(in_features=512, out_features=512, bias=True)\r\n          (v_proj): Linear(in_features=512, out_features=512, bias=True)\r\n          (q_proj): Linear(in_features=512, out_features=512, bias=True)\r\n          (out_proj): Linear(in_features=512, out_features=512, bias=True)\r\n        )\r\n        (self_attn_layer_norm): LayerNorm((512,), eps=1e-05, elementwise_affine=True)\r\n        (encoder_attn): MultiheadAttention(\r\n          (k_proj): Linear(in_features=512, out_features=512, bias=True)\r\n          (v_proj): Linear(in_features=512, out_features=512, bias=True)\r\n          (q_proj): Linear(in_features=512, out_features=512, bias=True)\r\n          (out_proj): Linear(in_features=512, out_features=512, bias=True)\r\n        )\r\n        (encoder_attn_layer_norm): LayerNorm((512,), eps=1e-05, elementwise_affine=True)\r\n        (fc1): Linear(in_features=512, out_features=1024, bias=True)\r\n        (fc2): Linear(in_features=1024, out_features=512, bias=True)\r\n        (final_layer_norm): LayerNorm((512,), eps=1e-05, elementwise_affine=True)\r\n      )\r\n      (3): TransformerDecoderLayer(\r\n        (self_attn): MultiheadAttention(\r\n          (k_proj): Linear(in_features=512, out_features=512, bias=True)\r\n          (v_proj): Linear(in_features=512, out_features=512, bias=True)\r\n          (q_proj): Linear(in_features=512, out_features=512, bias=True)\r\n          (out_proj): Linear(in_features=512, out_features=512, bias=True)\r\n        )\r\n        (self_attn_layer_norm): LayerNorm((512,), eps=1e-05, elementwise_affine=True)\r\n        (encoder_attn): MultiheadAttention(\r\n          (k_proj): Linear(in_features=512, out_features=512, bias=True)\r\n          (v_proj): Linear(in_features=512, out_features=512, bias=True)\r\n          (q_proj): Linear(in_features=512, out_features=512, bias=True)\r\n          (out_proj): Linear(in_features=512, out_features=512, bias=True)\r\n        )\r\n        (encoder_attn_layer_norm): LayerNorm((512,), eps=1e-05, elementwise_affine=True)\r\n        (fc1): Linear(in_features=512, out_features=1024, bias=True)\r\n        (fc2): Linear(in_features=1024, out_features=512, bias=True)\r\n        (final_layer_norm): LayerNorm((512,), eps=1e-05, elementwise_affine=True)\r\n      )\r\n      (4): TransformerDecoderLayer(\r\n        (self_attn): MultiheadAttention(\r\n          (k_proj): Linear(in_features=512, out_features=512, bias=True)\r\n          (v_proj): Linear(in_features=512, out_features=512, bias=True)\r\n          (q_proj): Linear(in_features=512, out_features=512, bias=True)\r\n          (out_proj): Linear(in_features=512, out_features=512, bias=True)\r\n        )\r\n        (self_attn_layer_norm): LayerNorm((512,), eps=1e-05, elementwise_affine=True)\r\n        (encoder_attn): MultiheadAttention(\r\n          (k_proj): Linear(in_features=512, out_features=512, bias=True)\r\n          (v_proj): Linear(in_features=512, out_features=512, bias=True)\r\n          (q_proj): Linear(in_features=512, out_features=512, bias=True)\r\n          (out_proj): Linear(in_features=512, out_features=512, bias=True)\r\n        )\r\n        (encoder_attn_layer_norm): LayerNorm((512,), eps=1e-05, elementwise_affine=True)\r\n        (fc1): Linear(in_features=512, out_features=1024, bias=True)\r\n        (fc2): Linear(in_features=1024, out_features=512, bias=True)\r\n        (final_layer_norm): LayerNorm((512,), eps=1e-05, elementwise_affine=True)\r\n      )\r\n      (5): TransformerDecoderLayer(\r\n        (self_attn): MultiheadAttention(\r\n          (k_proj): Linear(in_features=512, out_features=512, bias=True)\r\n          (v_proj): Linear(in_features=512, out_features=512, bias=True)\r\n          (q_proj): Linear(in_features=512, out_features=512, bias=True)\r\n          (out_proj): Linear(in_features=512, out_features=512, bias=True)\r\n        )\r\n        (self_attn_layer_norm): LayerNorm((512,), eps=1e-05, elementwise_affine=True)\r\n        (encoder_attn): MultiheadAttention(\r\n          (k_proj): Linear(in_features=512, out_features=512, bias=True)\r\n          (v_proj): Linear(in_features=512, out_features=512, bias=True)\r\n          (q_proj): Linear(in_features=512, out_features=512, bias=True)\r\n          (out_proj): Linear(in_features=512, out_features=512, bias=True)\r\n        )\r\n        (encoder_attn_layer_norm): LayerNorm((512,), eps=1e-05, elementwise_affine=True)\r\n        (fc1): Linear(in_features=512, out_features=1024, bias=True)\r\n        (fc2): Linear(in_features=1024, out_features=512, bias=True)\r\n        (final_layer_norm): LayerNorm((512,), eps=1e-05, elementwise_affine=True)\r\n      )\r\n    )\r\n  )\r\n)\r\n2020-08-01 01:36:22 | INFO | fairseq_cli.train | model oracle_transformer_iwslt_de_en, criterion OracleLabelSmoothedCrossEntropyCriterion\r\n2020-08-01 01:36:22 | INFO | fairseq_cli.train | num. model params: 42864640 (num. trained: 42864640)\r\n2020-08-01 01:36:22 | INFO | fairseq_cli.train | training on 4 GPUs\r\n2020
…
ractor(x)\r\n_, idxs = model.vector_quantizer.forward_idx(z)\r\nprint(idxs.shape) \r\n```\r\nI tried printing out the attributes of the object model... using ```print(model.__dict__)```\r\n```\r\n{'training': False, '_parameters': OrderedDict(), '_buffers': OrderedDict(), '_backward_hooks': OrderedDict(), '_forward_hooks': OrderedDict(), '_forward_pre_hooks': OrderedDict(), '_state_dict_hooks': OrderedDict(), '_load_state_dict_pre_hooks': OrderedDict(), '_modules': OrderedDict([('feature_extractor', ConvFeatureExtractionModel(\r\n  (conv_layers): ModuleList(\r\n    (0): Sequential(\r\n      (0): Conv1d(1, 512, kernel_size=(10,), stride=(5,), bias=False)\r\n      (1): Dropout(p=0.0, inplace=False)\r\n      (2): Fp32GroupNorm(1, 512, eps=1e-05, affine=True)\r\n      (3): ReLU()\r\n    )\r\n    (1): Sequential(\r\n      (0): Conv1d(512, 512, kernel_size=(8,), stride=(4,), bias=False)\r\n      (1): Dropout(p=0.0, inplace=False)\r\n      (2): Fp32GroupNorm(1, 512, eps=1e-05, affine=True)\r\n      (3): ReLU()\r\n    )\r\n    (2): Sequential(\r\n      (0): Conv1d(512, 512, kernel_size=(4,), stride=(2,), bias=False)\r\n      (1): Dropout(p=0.0, inplace=False)\r\n      (2): Fp32GroupNorm(1, 512, eps=1e-05, affine=True)\r\n      (3): ReLU()\r\n    )\r\n    (3): Sequential(\r\n      (0): Conv1d(512, 512, kernel_size=(4,), stride=(2,), bias=False)\r\n      (1): Dropout(p=0.0, inplace=False)\r\n      (2): Fp32GroupNorm(1, 512, eps=1e-05, affine=True)\r\n      (3): ReLU()\r\n    )\r\n    (4): Sequential(\r\n      (0): Conv1d(512, 512, kernel_size=(4,), stride=(2,), bias=False)\r\n      (1): Dropout(p=0.0, inplace=False)\r\n      (2): Fp32GroupNorm(1, 512, eps=1e-05, affine=True)\r\n      (3): ReLU()\r\n    )\r\n    (5): Sequential(\r\n      (0): Conv1d(512, 512, kernel_size=(1,), stride=(1,), bias=False)\r\n      (1): Dropout(p=0.0, inplace=False)\r\n      (2): Fp32GroupNorm(1, 512, eps=1e-05, affine=True)\r\n      (3): ReLU()\r\n    )\r\n    (6): Sequential(\r\n      (0): Conv1d(512, 512, kernel_size=(1,), stride=(1,), bias=False)\r\n      (1): Dropout(p=0.0, inplace=False)\r\n      (2): Fp32GroupNorm(1, 512, eps=1e-05, affine=True)\r\n      (3): ReLU()\r\n    )\r\n  )\r\n)), ('feature_aggregator', ConvAggegator(\r\n  (conv_layers): Sequential(\r\n    (0): Sequential(\r\n      (0): ReplicationPad1d((1, 0))\r\n      (1): Conv1d(512, 512, kernel_size=(2,), stride=(1,))\r\n      (2): Dropout(p=0.0, inplace=False)\r\n      (3): Fp32GroupNorm(1, 512, eps=1e-05, affine=True)\r\n      (4): ReLU()\r\n    )\r\n    (1): Sequential(\r\n      (0): ReplicationPad1d((2, 0))\r\n      (1): Conv1d(512, 512, kernel_size=(3,), stride=(1,))\r\n      (2): Dropout(p=0.0, inplace=False)\r\n      (3): Fp32GroupNorm(1, 512, eps=1e-05, affine=True)\r\n      (4): ReLU()\r\n    )\r\n    (2): Sequential(\r\n      (0): ReplicationPad1d((3, 0))\r\n      (1): Conv1d(512, 512, kernel_size=(4,), stride=(1,))\r\n      (2): Dropout(p=0.0, inplace=False)\r\n      (3): Fp32GroupNorm(1, 512, eps=1e-05, affine=True)\r\n      (4): ReLU()\r\n    )\r\n    (3): Sequential(\r\n      (0): ReplicationPad1d((4, 0))\r\n      (1): Conv1d(512, 512, kernel_size=(5,), stride=(1,))\r\n      (2): Dropout(p=0.0, inplace=False)\r\n      (3): Fp32GroupNorm(1, 512, eps=1e-05, affine=True)\r\n      (4): ReLU()\r\n    )\r\n    (4): Sequential(\r\n      (0): ReplicationPad1d((5, 0))\r\n      (1): Conv1d(512, 512, kernel_size=(6,), stride=(1,))\r\n      (2): Dropout(p=0.0, inplace=False)\r\n      (3): Fp32GroupNorm(1, 512, eps=1e-05, affine=True)\r\n      (4): ReLU()\r\n    )\r\n    (5): Sequential(\r\n      (0): ReplicationPad1d((6, 0))\r\n      (1): Conv1d(512, 512, kernel_size=(7,), stride=(1,))\r\n      (2): Dropout(p=0.0, inplace=False)\r\n      (3): Fp32GroupNorm(1, 512, eps=1e-05, affine=True)\r\n      (4): ReLU()\r\n    )\r\n    (6): Sequential(\r\n      (0): ReplicationPad1d((7, 0))\r\n      (1): Conv1d(512, 512, kernel_size=(8,), stride=(1,))\r\n      (2): Dropout(p=0.0, inplace=False)\r\n      (3): Fp32GroupNorm(1, 512, eps=1e-05, affine=True)\r\n      (4): ReLU()\r\n    )\r\n    (7): Sequential(\r\n      (0): ReplicationPad1d((8, 0))\r\n      (1): Conv1d(512, 512, kernel_size=(9,), stride=(1,))\r\n      (2): Dropout(p=0.0, inplace=False)\r\n      (3): Fp32GroupNorm(1, 512, eps=1e-05, affine=True)\r\n      (4): ReLU()\r\n    )\r\n    (8): Sequential(\r\n      (0): ReplicationPad1d((9, 0))\r\n      (1): Conv1d(512, 512, kernel_size=(10,), stride=(1,))\r\n      (2): Dropout(p=0.0, inplace=False)\r\n      (3): Fp32GroupNorm(1, 512, eps=1e-05, affine=True)\r\n      (4): ReLU()\r\n    )\r\n    (9): Sequential(\r\n      (0): ReplicationPad1d((10, 0))\r\n      (1): Conv1d(512, 512, kernel_size=(11,), stride=(1,))\r\n      (2): Dropout(p=0.0, inplace=False)\r\n      (3): Fp32GroupNorm(1, 512, eps=1e-05, affine=True)\r\n      (4): ReLU()\r\n    )\r\n    (10): Sequential(\r\n      (0): ReplicationPad1d((11, 0))\r\n      (1): Conv1d(512, 512, kernel_size=(12,), stride=(1,))\r\n      (2): Dropout(p=0.0, inplace=False)\r\n      (3): Fp32GroupNorm(1, 512, eps=1e-05, affine=True)\r\n      (4): ReLU()\r\n    )\r\n    (11): Sequential(\r\n      (0): ReplicationPad1d((12, 0))\r\n      (1): Conv1d(512, 512, kernel_size=(13,), stride=(1,))\r\n      (2): Dropout(p=0.0, inplace=False)\r\n      (3): Fp32GroupNorm(1, 512, eps=1e-05, affine=True)\r\n      (4): ReLU()\r\n    )\r\n  )\r\n  (residual_proj): ModuleList(\r\n    (0): None\r\n    (1): None\r\n    (2): None\r\n    (3): None\r\n    (4): None\r\n    (5): None\r\n    (6): None\r\n    (7): None\r\n    (8): None\r\n    (9): None\r\n    (10): None\r\n    (11): None\r\n  )\r\n)), ('wav2vec_predictions', Wav2VecPredictionsModel(\r\n  (project_to_steps): ConvTranspose2d(512, 512, kernel_size=(1, 12), stride=(1, 1))\r\n  (dropout): Dropout(p=0.0, inplace=False)\r\n)), ('dropout_feats', Dropout(p=0.0, inplace=False)), ('dropout_agg', Dropout(p=0.0, inplace=False))]), '_is_generation_fast': False, 'prediction_steps': 12, 'vector_quantizer': None, 'project_features': None}\r\n```\r\nThe attribute 'vector_quantizer' does seem to have the value of None. Am I loading the model incorrectly? \r\n\r\nI trained the wav2vec model on Windows 10, python = 3.7, torch=1.5.1. I followed the steps mentioned in the readme. The model trained for 33 epochs. I stopped the training using a keyboard interrupt. \r\n\r\nI installed fairseq from source.\r\n",
…
