…
9:32:20 d2.utils.env]: Using a generated random seed 20519604\r\n/data/anaconda3/envs/ovdino/lib/python3.9/site-packages/torch/functional.py:504: UserWarning: torch.meshgrid: in an upcoming release, it will be required to pass the indexing argument. (Triggered internally at /opt/conda/conda-bld/pytorch_1670525539683/work/aten/src/ATen/native/TensorShape.cpp:3190.)\r\n  return _VF.meshgrid(tensors, **kwargs)  # type: ignore[attr-defined]\r\n\r\n**the model info**:\r\n[09/26 19:32:21 detectron2]: Model:\r\nOVDINO(\r\n  (backbone): SwinTransformer(\r\n    (patch_embed): PatchEmbed(\r\n      (proj): Conv2d(3, 96, kernel_size=(4, 4), stride=(4, 4))\r\n      (norm): LayerNorm((96,), eps=1e-05, elementwise_affine=True)\r\n    )\r\n    (pos_drop): Dropout(p=0.0, inplace=False)\r\n    (layers): ModuleList(\r\n      (0): BasicLayer(\r\n        (blocks): ModuleList(\r\n          (0): SwinTransformerBlock(\r\n            (norm1): LayerNorm((96,), eps=1e-05, elementwise_affine=True)\r\n            (attn): WindowAttention(\r\n              (qkv): Linear(in_features=96, out_features=288, bias=True)\r\n              (attn_drop): Dropout(p=0.0, inplace=False)\r\n              (proj): Linear(in_features=96, out_features=96, bias=True)\r\n              (proj_drop): Dropout(p=0.0, inplace=False)\r\n              (softmax): Softmax(dim=-1)\r\n            )\r\n            (drop_path): Identity()\r\n            (norm2): LayerNorm((96,), eps=1e-05, elementwise_affine=True)\r\n            (mlp): Mlp(\r\n              (fc1): Linear(in_features=96, out_features=384, bias=True)\r\n              (act): GELU(approximate='none')\r\n              (fc2): Linear(in_features=384, out_features=96, bias=True)\r\n              (drop): Dropout(p=0.0, inplace=False)\r\n            )\r\n          )\r\n          (1): SwinTransformerBlock(\r\n            (norm1): LayerNorm((96,), eps=1e-05, elementwise_affine=True)\r\n            (attn): WindowAttention(\r\n              (qkv): Linear(in_features=96, out_features=288, bias=True)\r\n              (attn_drop): Dropout(p=0.0, inplace=False)\r\n              (proj): Linear(in_features=96, out_features=96, bias=True)\r\n              (proj_drop): Dropout(p=0.0, inplace=False)\r\n              (softmax): Softmax(dim=-1)\r\n            )\r\n            (drop_path): DropPath(drop_prob=0.009)\r\n            (norm2): LayerNorm((96,), eps=1e-05, elementwise_affine=True)\r\n            (mlp): Mlp(\r\n              (fc1): Linear(in_features=96, out_features=384, bias=True)\r\n              (act): GELU(approximate='none')\r\n              (fc2): Linear(in_features=384, out_features=96, bias=True)\r\n              (drop): Dropout(p=0.0, inplace=False)\r\n            )\r\n          )\r\n        )\r\n        (downsample): PatchMerging(\r\n          (reduction): Linear(in_features=384, out_features=192, bias=False)\r\n          (norm): LayerNorm((384,), eps=1e-05, elementwise_affine=True)\r\n        )\r\n      )\r\n      (1): BasicLayer(\r\n        (blocks): ModuleList(\r\n          (0): SwinTransformerBlock(\r\n            (norm1): LayerNorm((192,), eps=1e-05, elementwise_affine=True)\r\n            (attn): WindowAttention(\r\n              (qkv): Linear(in_features=192, out_features=576, bias=True)\r\n              (attn_drop): Dropout(p=0.0, inplace=False)\r\n              (proj): Linear(in_features=192, out_features=192, bias=True)\r\n              (proj_drop): Dropout(p=0.0, inplace=False)\r\n              (softmax): Softmax(dim=-1)\r\n            )\r\n            (drop_path): DropPath(drop_prob=0.018)\r\n            (norm2): LayerNorm((192,), eps=1e-05, elementwise_affine=True)\r\n            (mlp): Mlp(\r\n              (fc1): Linear(in_features=192, out_features=768, bias=True)\r\n              (act): GELU(approximate='none')\r\n              (fc2): Linear(in_features=768, out_features=192, bias=True)\r\n              (drop): Dropout(p=0.0, inplace=False)\r\n            )\r\n          )\r\n          (1): SwinTransformerBlock(\r\n            (norm1): LayerNorm((192,), eps=1e-05, elementwise_affine=True)\r\n            (attn): WindowAttention(\r\n              (qkv): Linear(in_features=192, out_features=576, bias=True)\r\n              (attn_drop): Dropout(p=0.0, inplace=False)\r\n              (proj): Linear(in_features=192, out_features=192, bias=True)\r\n              (proj_drop): Dropout(p=0.0, inplace=False)\r\n              (softmax): Softmax(dim=-1)\r\n            )\r\n            (drop_path): DropPath(drop_prob=0.027)\r\n            (norm2): LayerNorm((192,), eps=1e-05, elementwise_affine=True)\r\n            (mlp): Mlp(\r\n              (fc1): Linear(in_features=192, out_features=768, bias=True)\r\n              (act): GELU(approximate='none')\r\n              (fc2): Linear(in_features=768, out_features=192, bias=True)\r\n              (drop): Dropout(p=0.0, inplace=False)\r\n            )\r\n          )\r\n        )\r\n        (downsample): PatchMerging(\r\n          (reduction): Linear(in_features=768, out_features=384, bias=False)\r\n          (norm): LayerNorm((768,), eps=1e-05, elementwise_affine=True)\r\n        )\r\n      )\r\n      (2): BasicLayer(\r\n        (blocks): ModuleList(\r\n          (0): SwinTransformerBlock(\r\n            (norm1): LayerNorm((384,), eps=1e-05, elementwise_affine=True)\r\n            (attn): WindowAttention(\r\n              (qkv): Linear(in_features=384, out_features=1152, bias=True)\r\n              (attn_drop): Dropout(p=0.0, inplace=False)\r\n              (proj): Linear(in_features=384, out_features=384, bias=True)\r\n              (proj_drop): Dropout(p=0.0, inplace=False)\r\n              (softmax): Softmax(dim=-1)\r\n            )\r\n            (drop_path): DropPath(drop_prob=0.036)\r\n            (norm2): LayerNorm((384,), eps=1e-05, elementwise_affine=True)\r\n            (mlp): Mlp(\r\n              (fc1): Linear(in_features=384, out_features=1536, bias=True)\r\n              (act): GELU(approximate='none')\r\n              (fc2): Linear(in_features=1536, out_features=384, bias=True)\r\n              (drop): Dropout(p=0.0, inplace=False)\r\n            )\r\n          )\r\n          (1): SwinTransformerBlock(\r\n            (norm1): LayerNorm((384,), eps=1e-05, elementwise_affine=True)\r\n            (attn): WindowAttention(\r\n              (qkv): Linear(in_features=384, out_features=1152, bias=True)\r\n              (attn_drop): Dropout(p=0.0, inplace=False)\r\n              (proj): Linear(in_features=384, out_features=384, bias=True)\r\n              (proj_drop): Dropout(p=0.0, inplace=False)\r\n              (softmax): Softmax(dim=-1)\r\n            )\r\n            (drop_path): DropPath(drop_prob=0.045)\r\n            (norm2): LayerNorm((384,), eps=1e-05, elementwise_affine=True)\r\n            (mlp): Mlp(\r\n              (fc1): Linear(in_features=384, out_features=1536, bias=True)\r\n              (act): GELU(approximate='none')\r\n              (fc2): Linear(in_features=1536, out_features=384, bias=True)\r\n              (drop): Dropout(p=0.0, inplace=False)\r\n            )\r\n          )\r\n          (2): SwinTransformerBlock(\r\n            (norm1): LayerNorm((384,), eps=1e-05, elementwise_affine=True)\r\n            (attn): WindowAttention(\r\n              (qkv): Linear(in_features=384, out_features=1152, bias=True)\r\n              (attn_drop): Dropout(p=0.0, inplace=False)\r\n              (proj): Linear(in_features=384, out_features=384, bias=True)\r\n              (proj_drop): Dropout(p=0.0, inplace=False)\r\n              (softmax): Softmax(dim=-1)\r\n            )\r\n            (drop_path): DropPath(drop_prob=0.055)\r\n            (norm2): LayerNorm((384,), eps=1e-05, elementwise_affine=True)\r\n            (mlp): Mlp(\r\n              (fc1): Linear(in_features=384, out_features=1536, bias=True)\r\n              (act): GELU(approximate='none')\r\n              (fc2): Linear(in_features=1536, out_features=384, bias=True)\r\n              (drop): Dropout(p=0.0, inplace=False)\r\n            )\r\n          )\r\n          (3): SwinTransformerBlock(\r\n            (norm1): LayerNorm((384,), eps=1e-05, elementwise_affine=True)\r\n            (attn): WindowAttention(\r\n              (qkv): Linear(in_features=384, out_features=1152, bias=True)\r\n              (attn_drop): Dropout(p=0.0, inplace=False)\r\n              (proj): Linear(in_features=384, out_features=384, bias=True)\r\n              (proj_drop): Dropout(p=0.0, inplace=False)\r\n              (softmax): Softmax(dim=-1)\r\n            )\r\n            (drop_path): DropPath(drop_prob=0.064)\r\n            (norm2): LayerNorm((384,), eps=1e-05, elementwise_affine=True)\r\n            (mlp): Mlp(\r\n              (fc1): Linear(in_features=384, out_features=1536, bias=True)\r\n              (act): GELU(approximate='none')\r\n              (fc2): Linear(in_features=1536, out_features=384, bias=True)\r\n              (drop): Dropout(p=0.0, inplace=False)\r\n            )\r\n          )\r\n          (4): SwinTransformerBlock(\r\n            (norm1): LayerNorm((384,), eps=1e-05, elementwise_affine=True)\r\n            (attn): WindowAttention(\r\n              (qkv): Linear(in_features=384, out_features=1152, bias=True)\r\n              (attn_drop): Dropout(p=0.0, inplace=False)\r\n              (proj): Linear(in_features=384, out_features=384, bias=True)\r\n              (proj_drop): Dropout(p=0.0, inplace=False)\r\n              (softmax): Softmax(dim=-1)\r\n            )\r\n            (drop_path): DropPath(drop_prob=0.073)\r\n            (norm2): LayerNorm((384,), eps=1e-05, elementwise_affine=True)\r\n            (mlp): Mlp(\r\n              (fc1): Linear(in_features=384, out_features=1536, bias=True)\r\n              (act): GELU(approximate='none')\r\n              (fc2): Linear(in_features=1536, out_features=384, bias=True)\r\n              (drop): Dropout(p=0.0, inplace=False)\r\n            )\r\n          )\r\n          (5): SwinTransformerBlock(\r\n            (norm1): LayerNorm((384,), eps=1e-05, elementwise_affine=True)\r\n            (attn): WindowAttention(\r\n              (qkv): Linear(in_features=384, out_features=1152, bias=True)\r\n              (attn_drop): Dropout(p=0.0, inplace=False)\r\n              (proj): Linear(in_features=384, out_features=384, bias=True)\r\n              (proj_drop): Dropout(p=0.0, inplace=False)\r\n              (softmax): Softmax(dim=-1)\r\n            )\r\n            (drop_path): DropPath(drop_prob=0.082)\r\n            (norm2): LayerNorm((384,), eps=1e-05, elementwise_affine=True)\r\n            (mlp): Mlp(\r\n              (fc1): Linear(in_features=384, out_features=1536, bias=True)\r\n              (act): GELU(approximate='none')\r\n              (fc2): Linear(in_features=1536, out_features=384, bias=True)\r\n              (drop): Dropout(p=0.0, inplace=False)\r\n            )\r\n          )\r\n        )\r\n        (downsample): PatchMerging(\r\n          (reduction): Linear(in_features=1536, out_features=768, bias=False)\r\n          (norm): LayerNorm((1536,), eps=1e-05, elementwise_affine=True)\r\n        )\r\n      )\r\n      (3): BasicLayer(\r\n        (blocks): ModuleList(\r\n          (0): SwinTransformerBlock(\r\n            (norm1): LayerNorm((768,), eps=1e-05, elementwise_affine=True)\r\n            (attn): WindowAttention(\r\n              (qkv): Linear(in_features=768, out_features=2304, bias=True)\r\n              (attn_drop): Dropout(p=0.0, inplace=False)\r\n              (proj): Linear(in_features=768, out_features=768, bias=True)\r\n              (proj_drop): Dropout(p=0.0, inplace=False)\r\n              (softmax): Softmax(dim=-1)\r\n            )\r\n            (drop_path): DropPath(drop_prob=0.091)\r\n            (norm2): LayerNorm((768,), eps=1e-05, elementwise_affine=True)\r\n            (mlp): Mlp(\r\n              (fc1): Linear(in_features=768, out_features=3072, bias=True)\r\n              (act): GELU(approximate='none')\r\n              (fc2): Linear(in_features=3072, out_features=768, bias=True)\r\n              (drop): Dropout(p=0.0, inplace=False)\r\n            )\r\n          )\r\n          (1): SwinTransformerBlock(\r\n            (norm1): LayerNorm((768,), eps=1e-05, elementwise_affine=True)\r\n            (attn): WindowAttention(\r\n              (qkv): Linear(in_features=768, out_features=2304, bias=True)\r\n              (attn_drop): Dropout(p=0.0, inplace=False)\r\n              (proj): Linear(in_features=768, out_features=768, bias=True)\r\n              (proj_drop): Dropout(p=0.0, inplace=False)\r\n              (softmax): Softmax(dim=-1)\r\n            )\r\n            (drop_path): DropPath(drop_prob=0.100)\r\n            (norm2): LayerNorm((768,), eps=1e-05, elementwise_affine=True)\r\n            (mlp): Mlp(\r\n              (fc1): Linear(in_features=768, out_features=3072, bias=True)\r\n              (act): GELU(approximate='none')\r\n              (fc2): Linear(in_features=3072, out_features=768, bias=True)\r\n              (drop): Dropout(p=0.0, inplace=False)\r\n            )\r\n          )\r\n        )\r\n      )\r\n    )\r\n    (norm1): LayerNorm((192,), eps=1e-05, elementwise_affine=True)\r\n    (norm2): LayerNorm((384,), eps=1e-05, elementwise_affine=True)\r\n    (norm3): LayerNorm((768,), eps=1e-05, elementwise_affine=True)\r\n  )\r\n  (language_backbone): BERTEncoder(\r\n    (lang_model): BertModel(\r\n      (embeddings): BertEmbeddings(\r\n        (word_embeddings): Embedding(30522, 768, padding_idx=0)\r\n        (position_embeddings): Embedding(512, 768)\r\n        (token_type_embeddings): Embedding(2, 768)\r\n        (LayerNorm): LayerNorm((768,), eps=1e-12, elementwise_affine=True)\r\n        (dropout): Dropout(p=0.1, inplace=False)\r\n      )\r\n      (encoder): BertEncoder(\r\n        (layer): ModuleList(\r\n          (0): BertLayer(\r\n            (attention): BertAttention(\r\n              (self): BertSelfAttention(\r\n                (query): Linear(in_features=768, out_features=768, bias=True)\r\n                (key): Linear(in_features=768, out_features=768, bias=True)\r\n                (value): Linear(in_features=768, out_features=768, bias=True)\r\n                (dropout): Dropout(p=0.1, inplace=False)\r\n              )\r\n              (output): BertSelfOutput(\r\n                (dense): Linear(in_features=768, out_features=768, bias=True)\r\n                (LayerNorm): LayerNorm((768,), eps=1e-12, elementwise_affine=True)\r\n                (dropout): Dropout(p=0.1, inplace=False)\r\n              )\r\n            )\r\n            (intermediate): BertIntermediate(\r\n              (dense): Linear(in_features=768, out_features=3072, bias=True)\r\n              (intermediate_act_fn): GELUActivation()\r\n            )\r\n            (output): BertOutput(\r\n              (dense): Linear(in_features=3072, out_features=768, bias=True)\r\n              (LayerNorm): LayerNorm((768,), eps=1e-12, elementwise_affine=True)\r\n              (dropout): Dropout(p=0.1, inplace=False)\r\n            )\r\n          )\r\n          (1): BertLayer(\r\n            (attention): BertAttention(\r\n              (self): BertSelfAttention(\r\n                (query): Linear(in_features=768, out_features=768, bias=True)\r\n                (key): Linear(in_features=768, out_features=768, bias=True)\r\n                (value): Linear(in_features=768, out_features=768, bias=True)\r\n                (dropout): Dropout(p=0.1, inplace=False)\r\n              )\r\n              (output): BertSelfOutput(\r\n                (dense): Linear(in_features=768, out_features=768, bias=True)\r\n                (LayerNorm): LayerNorm((768,), eps=1e-12, elementwise_affine=True)\r\n                (dropout): Dropout(p=0.1, inplace=False)\r\n              )\r\n            )\r\n            (intermediate): BertIntermediate(\r\n              (dense): Linear(in_features=768, out_features=3072, bias=True)\r\n              (intermediate_act_fn): GELUActivation()\r\n            )\r\n            (output): BertOutput(\r\n              (dense): Linear(in_features=3072, out_features=768, bias=True)\r\n              (LayerNorm): LayerNorm((768,), eps=1e-12, elementwise_affine=True)\r\n              (dropout): Dropout(p=0.1, inplace=False)\r\n            )\r\n          )\r\n          (2): BertLayer(\r\n            (attention): BertAttention(\r\n              (self): BertSelfAttention(\r\n                (query): Linear(in_features=768, out_features=768, bias=True)\r\n                (key): Linear(in_features=768, out_features=768, bias=True)\r\n                (value): Linear(in_features=768, out_features=768, bias=True)\r\n                (dropout): Dropout(p=0.1, inplace=False)\r\n              )\r\n              (output): BertSelfOutput(\r\n                (dense): Linear(in_features=768, out_features=768, bias=True)\r\n                (LayerNorm): LayerNorm((768,), eps=1e-12, elementwise_affine=True)\r\n                (dropout): Dropout(p=0.1, inplace=False)\r\n              )\r\n            )\r\n            (intermediate): BertIntermediate(\r\n              (dense): Linear(in_features=768, out_features=3072, bias=True)\r\n              (intermediate_act_fn): GELUActivation()\r\n            )\r\n            (output): BertOutput(\r\n              (dense): Linear(in_features=3072, out_features=768, bias=True)\r\n              (LayerNorm): LayerNorm((768,), eps=1e-12, elementwise_affine=True)\r\n              (dropout): Dropout(p=0.1, inplace=False)\r\n            )\r\n          )\r\n          (3): BertLayer(\r\n            (attention): BertAttention(\r\n              (self): BertSelfAttention(\r\n                (query): Linear(in_features=768, out_features=768, bias=True)\r\n                (key): Linear(in_features=768, out_features=768, bias=True)\r\n                (value): Linear(in_features=768, out_features=768, bias=True)\r\n                (dropout): Dropout(p=0.1, inplace=False)\r\n              )\r\n              (output): BertSelfOutput(\r\n                (dense): Linear(in_features=768, out_features=768, bias=True)\r\n                (LayerNorm): LayerNorm((768,), eps=1e-12, elementwise_affine=True)\r\n                (dropout): Dropout(p=0.1, inplace=False)\r\n              )\r\n            )\r\n            (intermediate): BertIntermediate(\r\n              (dense): Linear(in_features=768, out_features=3072, bias=True)\r\n              (intermediate_act_fn): GELUActivation()\r\n            )\r\n            (output): BertOutput(\r\n              (dense): Linear(in_features=3072, out_features=768, bias=True)\r\n              (LayerNorm): LayerNorm((768,), eps=1e-12, elementwise_affine=True)\r\n              (dropout): Dropout(p=0.1, inplace=False)\r\n            )\r\n          )\r\n          (4): BertLayer(\r\n            (attention): BertAttention(\r\n              (self): BertSelfAttention(\r\n                (query): Linear(in_features=768, out_features=768, bias=True)\r\n                (key): Linear(in_features=768, out_features=768, bias=True)\r\n                (value): Linear(in_features=768, out_features=768, bias=True)\r\n                (dropout): Dropout(p=0.1, inplace=False)\r\n              )\r\n              (output): BertSelfOutput(\r\n                (dense): Linear(in_features=768, out_features=768, bias=True)\r\n                (LayerNorm): LayerNorm((768,), eps=1e-12, elementwise_affine=True)\r\n                (dropout): Dropout(p=0.1, inplace=False)\r\n              )\r\n            )\r\n            (intermediate): BertIntermediate(\r\n              (dense): Linear(in_features=768, out_features=3072, bias=True)\r\n              (intermediate_act_fn): GELUActivation()\r\n            )\r\n            (output): BertOutput(\r\n              (dense): Linear(in_features=3072, out_features=768, bias=True)\r\n              (LayerNorm): LayerNorm((768,), eps=1e-12, elementwise_affine=True)\r\n              (dropout): Dropout(p=0.1, inplace=False)\r\n            )\r\n          )\r\n          (5): BertLayer(\r\n            (attention): BertAttention(\r\n              (self): BertSelfAttention(\r\n                (query): Linear(in_features=768, out_features=768, bias=True)\r\n                (key): Linear(in_features=768, out_features=768, bias=True)\r\n                (value): Linear(in_features=768, out_features=768, bias=True)\r\n                (dropout): Dropout(p=0.1, inplace=False)\r\n              )\r\n              (output): BertSelfOutput(\r\n                (dense): Linear(in_features=768, out_features=768, bias=True)\r\n                (LayerNorm): LayerNorm((768,), eps=1e-12, elementwise_affine=True)\r\n                (dropout): Dropout(p=0.1, inplace=False)\r\n              )\r\n            )\r\n            (intermediate): BertIntermediate(\r\n              (dense): Linear(in_features=768, out_features=3072, bias=True)\r\n              (intermediate_act_fn): GELUActivation()\r\n            )\r\n            (output): BertOutput(\r\n              (dense): Linear(in_features=3072, out_features=768, bias=True)\r\n              (LayerNorm): LayerNorm((768,), eps=1e-12, elementwise_affine=True)\r\n              (dropout): Dropout(p=0.1, inplace=False)\r\n            )\r\n          )\r\n          (6): BertLayer(\r\n            (attention): BertAttention(\r\n              (self): BertSelfAttention(\r\n                (query): Linear(in_features=768, out_features=768, bias=True)\r\n                (key): Linear(in_features=768, out_features=768, bias=True)\r\n                (value): Linear(in_features=768, out_features=768, bias=True)\r\n                (dropout): Dropout(p=0.1, inplace=False)\r\n              )\r\n              (output): BertSelfOutput(\r\n                (dense): Linear(in_features=768, out_features=768, bias=True)\r\n                (LayerNorm): LayerNorm((768,), eps=1e-12, elementwise_affine=True)\r\n                (dropout): Dropout(p=0.1, inplace=False)\r\n              )\r\n            )\r\n            (intermediate): BertIntermediate(\r\n              (dense): Linear(in_features=768, out_features=3072, bias=True)\r\n              (intermediate_act_fn): GELUActivation()\r\n            )\r\n            (output): BertOutput(\r\n              (dense): Linear(in_features=3072, out_features=768, bias=True)\r\n              (LayerNorm): LayerNorm((768,), eps=1e-12, elementwise_affine=True)\r\n              (dropout): Dropout(p=0.1, inplace=False)\r\n            )\r\n          )\r\n          (7): BertLayer(\r\n            (attention): BertAttention(\r\n              (self): BertSelfAttention(\r\n                (query): Linear(in_features=768, out_features=768, bias=True)\r\n                (key): Linear(in_features=768, out_features=768, bias=True)\r\n                (value): Linear(in_features=768, out_features=768, bias=True)\r\n                (dropout): Dropout(p=0.1, inplace=False)\r\n              )\r\n              (output): BertSelfOutput(\r\n                (dense): Linear(in_features=768, out_features=768, bias=True)\r\n                (LayerNorm): LayerNorm((768,), eps=1e-12, elementwise_affine=True)\r\n                (dropout): Dropout(p=0.1, inplace=False)\r\n              )\r\n            )\r\n            (intermediate): BertIntermediate(\r\n              (dense): Linear(in_features=768, out_features=3072, bias=True)\r\n              (intermediate_act_fn): GELUActivation()\r\n            )\r\n            (output): BertOutput(\r\n              (dense): Linear(in_features=3072, out_features=768, bias=True)\r\n              (LayerNorm): LayerNorm((768,), eps=1e-12, elementwise_affine=True)\r\n              (dropout): Dropout(p=0.1, inplace=False)\r\n            )\r\n          )\r\n          (8): BertLayer(\r\n            (attention): BertAttention(\r\n              (self): BertSelfAttention(\r\n                (query): Linear(in_features=768, out_features=768, bias=True)\r\n                (key): Linear(in_features=768, out_features=768, bias=True)\r\n                (value): Linear(in_features=768, out_features=768, bias=True)\r\n                (dropout): Dropout(p=0.1, inplace=False)\r\n              )\r\n              (output): BertSelfOutput(\r\n                (dense): Linear(in_features=768, out_features=768, bias=True)\r\n                (LayerNorm): LayerNorm((768,), eps=1e-12, elementwise_affine=True)\r\n                (dropout): Dropout(p=0.1, inplace=False)\r\n              )\r\n            )\r\n            (intermediate): BertIntermediate(\r\n              (dense): Linear(in_features=768, out_features=3072, bias=True)\r\n              (intermediate_act_fn): GELUActivation()\r\n            )\r\n            (output): BertOutput(\r\n              (dense): Linear(in_features=3072, out_features=768, bias=True)\r\n              (LayerNorm): LayerNorm((768,), eps=1e-12, elementwise_affine=True)\r\n              (dropout): Dropout(p=0.1, inplace=False)\r\n            )\r\n          )\r\n          (9): BertLayer(\r\n            (attention): BertAttention(\r\n              (self): BertSelfAttention(\r\n                (query): Linear(in_features=768, out_features=768, bias=True)\r\n                (key): Linear(in_features=768, out_features=768, bias=True)\r\n                (value): Linear(in_features=768, out_features=768, bias=True)\r\n                (dropout): Dropout(p=0.1, inplace=False)\r\n              )\r\n              (output): BertSelfOutput(\r\n                (dense): Linear(in_features=768, out_features=768, bias=True)\r\n                (LayerNorm): LayerNorm((768,), eps=1e-12, elementwise_affine=True)\r\n                (dropout): Dropout(p=0.1, inplace=False)\r\n              )\r\n            )\r\n            (intermediate): BertIntermediate(\r\n              (dense): Linear(in_features=768, out_features=3072, bias=True)\r\n              (intermediate_act_fn): GELUActivation()\r\n            )\r\n            (output): BertOutput(\r\n              (dense): Linear(in_features=3072, out_features=768, bias=True)\r\n              (LayerNorm): LayerNorm((768,), eps=1e-12, elementwise_affine=True)\r\n              (dropout): Dropout(p=0.1, inplace=False)\r\n            )\r\n          )\r\n          (10): BertLayer(\r\n            (attention): BertAttention(\r\n              (self): BertSelfAttention(\r\n                (query): Linear(in_features=768, out_features=768, bias=True)\r\n                (key): Linear(in_features=768, out_features=768, bias=True)\r\n                (value): Linear(in_features=768, out_features=768, bias=True)\r\n                (dropout): Dropout(p=0.1, inplace=False)\r\n              )\r\n              (output): BertSelfOutput(\r\n                (dense): Linear(in_features=768, out_features=768, bias=True)\r\n                (LayerNorm): LayerNorm((768,), eps=1e-12, elementwise_affine=True)\r\n                (dropout): Dropout(p=0.1, inplace=False)\r\n              )\r\n            )\r\n            (intermediate): BertIntermediate(\r\n              (dense): Linear(in_features=768, out_features=3072, bias=True)\r\n              (intermediate_act_fn): GELUActivation()\r\n            )\r\n            (output): BertOutput(\r\n              (dense): Linear(in_features=3072, out_features=768, bias=True)\r\n              (LayerNorm): LayerNorm((768,), eps=1e-12, elementwise_affine=True)\r\n              (dropout): Dropout(p=0.1, inplace=False)\r\n            )\r\n          )\r\n          (11): BertLayer(\r\n            (attention): BertAttention(\r\n              (self): BertSelfAttention(\r\n                (query): Linear(in_features=768, out_features=768, bias=True)\r\n                (key): Linear(in_features=768, out_features=768, bias=True)\r\n                (value): Linear(in_features=768, out_features=768, bias=True)\r\n                (dropout): Dropout(p=0.1, inplace=False)\r\n              )\r\n              (output): BertSelfOutput(\r\n                (dense): Linear(in_features=768, out_features=768, bias=True)\r\n                (LayerNorm): LayerNorm((768,), eps=1e-12, elementwise_affine=True)\r\n                (dropout): Dropout(p=0.1, inplace=False)\r\n              )\r\n            )\r\n            (intermediate): BertIntermediate(\r\n              (dense): Linear(in_features=768, out_features=3072, bias=True)\r\n              (intermediate_act_fn): GELUActivation()\r\n            )\r\n            (output): BertOutput(\r\n              (dense): Linear(in_features=3072, out_features=768, bias=True)\r\n              (LayerNorm): LayerNorm((768,), eps=1e-12, elementwise_affine=True)\r\n              (dropout): Dropout(p=0.1, inplace=False)\r\n            )\r\n          )\r\n        )\r\n      )\r\n    )\r\n  )\r\n  (position_embedding): PositionEmbeddingSine()\r\n  (neck): ChannelMapper(\r\n    (convs): ModuleList(\r\n      (0): ConvNormAct(\r\n        (conv): Conv2d(192, 256, kernel_size=(1, 1), stride=(1, 1))\r\n        (norm): GroupNorm(32, 256, eps=1e-05, affine=True)\r\n      )\r\n      (1): ConvNormAct(\r\n        (conv): Conv2d(384, 256, kernel_size=(1, 1), stride=(1, 1))\r\n        (norm): GroupNorm(32, 256, eps=1e-05, affine=True)\r\n      )\r\n      (2): ConvNormAct(\r\n        (conv): Conv2d(768, 256, kernel_size=(1, 1), stride=(1, 1))\r\n        (norm): GroupNorm(32, 256, eps=1e-05, affine=True)\r\n      )\r\n    )\r\n    (extra_convs): ModuleList(\r\n      (0): ConvNormAct(\r\n        (conv): Conv2d(768, 256, kernel_size=(3, 3), stride=(2, 2), padding=(1, 1))\r\n        (norm): GroupNorm(32, 256, eps=1e-05, affine=True)\r\n      )\r\n    )\r\n  )\r\n  (transformer): DINOTransformer(\r\n    (encoder): DINOTransformerEncoder(\r\n      (layers): ModuleList(\r\n        (0): BaseTransformerLayer(\r\n          (attentions): ModuleList(\r\n            (0): MultiScaleDeformableAttention(\r\n              (dropout): Dropout(p=0.0, inplace=False)\r\n              (sampling_offsets): Linear(in_features=256, out_features=256, bias=True)\r\n              (attention_weights): Linear(in_features=256, out_features=128, bias=True)\r\n              (value_proj): Linear(in_features=256, out_features=256, bias=True)\r\n              (output_proj): Linear(in_features=256, out_features=256, bias=True)\r\n            )\r\n          )\r\n          (ffns): ModuleList(\r\n            (0): FFN(\r\n              (activation): ReLU(inplace=True)\r\n              (layers): Sequential(\r\n                (0): Sequential(\r\n                  (0): Linear(in_features=256, out_features=2048, bias=True)\r\n                  (1): ReLU(inplace=True)\r\n                  (2): Dropout(p=0.0, inplace=False)\r\n                )\r\n                (1): Linear(in_features=2048, out_features=256, bias=True)\r\n                (2): Dropout(p=0.0, inplace=False)\r\n              )\r\n            )\r\n          )\r\n          (norms): ModuleList(\r\n            (0): LayerNorm((256,), eps=1e-05, elementwise_affine=True)\r\n            (1): LayerNorm((256,), eps=1e-05, elementwise_affine=True)\r\n          )\r\n        )\r\n        (1): BaseTransformerLayer(\r\n          (attentions): ModuleList(\r\n            (0): MultiScaleDeformableAttention(\r\n              (dropout): Dropout(p=0.0, inplace=False)\r\n              (sampling_offsets): Linear(in_features=256, out_features=256, bias=True)\r\n              (attention_weights): Linear(in_features=256, out_features=128, bias=True)\r\n              (value_proj): Linear(in_features=256, out_features=256, bias=True)\r\n              (output_proj): Linear(in_features=256, out_features=256, bias=True)\r\n            )\r\n          )\r\n          (ffns): ModuleList(\r\n            (0): FFN(\r\n              (activation): ReLU(inplace=True)\r\n              (layers): Sequential(\r\n                (0): Sequential(\r\n                  (0): Linear(in_features=256, out_features=2048, bias=True)\r\n                  (1): ReLU(inplace=True)\r\n                  (2): Dropout(p=0.0, inplace=False)\r\n                )\r\n                (1): Linear(in_features=2048, out_features=256, bias=True)\r\n                (2): Dropout(p=0.0, inplace=False)\r\n              )\r\n            )\r\n          )\r\n          (norms): ModuleList(\r\n            (0): LayerNorm((256,), eps=1e-05, elementwise_affine=True)\r\n            (1): LayerNorm((256,), eps=1e-05, elementwise_affine=True)\r\n          )\r\n        )\r\n        (2): BaseTransformerLayer(\r\n          (attentions): ModuleList(\r\n            (0): MultiScaleDeformableAttention(\r\n              (dropout): Dropout(p=0.0, inplace=False)\r\n              (sampling_offsets): Linear(in_features=256, out_features=256, bias=True)\r\n              (attention_weights): Linear(in_features=256, out_features=128, bias=True)\r\n              (value_proj): Linear(in_features=256, out_features=256, bias=True)\r\n              (output_proj): Linear(in_features=256, out_features=256, bias=True)\r\n            )\r\n          )\r\n          (ffns): ModuleList(\r\n            (0): FFN(\r\n              (activation): ReLU(inplace=True)\r\n              (layers): Sequential(\r\n                (0): Sequential(\r\n                  (0): Linear(in_features=256, out_features=2048, bias=True)\r\n                  (1): ReLU(inplace=True)\r\n                  (2): Dropout(p=0.0, inplace=False)\r\n                )\r\n                (1): Linear(in_features=2048, out_features=256, bias=True)\r\n                (2): Dropout(p=0.0, inplace=False)\r\n              )\r\n            )\r\n          )\r\n          (norms): ModuleList(\r\n            (0): LayerNorm((256,), eps=1e-05, elementwise_affine=True)\r\n            (1): LayerNorm((256,), eps=1e-05, elementwise_affine=True)\r\n          )\r\n        )\r\n        (3): BaseTransformerLayer(\r\n          (attentions): ModuleList(\r\n            (0): MultiScaleDeformableAttention(\r\n              (dropout): Dropout(p=0.0, inplace=False)\r\n              (sampling_offsets): Linear(in_features=256, out_features=256, bias=True)\r\n              (attention_weights): Linear(in_features=256, out_features=128, bias=True)\r\n              (value_proj): Linear(in_features=256, out_features=256, bias=True)\r\n              (output_proj): Linear(in_features=256, out_features=256, bias=True)\r\n            )\r\n          )\r\n          (ffns): ModuleList(\r\n            (0): FFN(\r\n              (activation): ReLU(inplace=True)\r\n              (layers): Sequential(\r\n                (0): Sequential(\r\n                  (0): Linear(in_features=256, out_features=2048, bias=True)\r\n                  (1): ReLU(inplace=True)\r\n                  (2): Dropout(p=0.0, inplace=False)\r\n                )\r\n                (1): Linear(in_features=2048, out_features=256, bias=True)\r\n                (2): Dropout(p=0.0, inplace=False)\r\n              )\r\n            )\r\n          )\r\n          (norms): ModuleList(\r\n            (0): LayerNorm((256,), eps=1e-05, elementwise_affine=True)\r\n            (1): LayerNorm((256,), eps=1e-05, elementwise_affine=True)\r\n          )\r\n        )\r\n        (4): BaseTransformerLayer(\r\n          (attentions): ModuleList(\r\n            (0): MultiScaleDeformableAttention(\r\n              (dropout): Dropout(p=0.0, inplace=False)\r\n              (sampling_offsets): Linear(in_features=256, out_features=256, bias=True)\r\n              (attention_weights): Linear(in_features=256, out_features=128, bias=True)\r\n              (value_proj): Linear(in_features=256, out_features=256, bias=True)\r\n              (output_proj): Linear(in_features=256, out_features=256, bias=True)\r\n            )\r\n          )\r\n          (ffns): ModuleList(\r\n            (0): FFN(\r\n              (activation): ReLU(inplace=True)\r\n              (layers): Sequential(\r\n                (0): Sequential(\r\n                  (0): Linear(in_features=256, out_features=2048, bias=True)\r\n                  (1): ReLU(inplace=True)\r\n                  (2): Dropout(p=0.0, inplace=False)\r\n                )\r\n                (1): Linear(in_features=2048, out_features=256, bias=True)\r\n                (2): Dropout(p=0.0, inplace=False)\r\n              )\r\n            )\r\n          )\r\n          (norms): ModuleList(\r\n            (0): LayerNorm((256,), eps=1e-05, elementwise_affine=True)\r\n            (1): LayerNorm((256,), eps=1e-05, elementwise_affine=True)\r\n          )\r\n        )\r\n        (5): BaseTransformerLayer(\r\n          (attentions): ModuleList(\r\n            (0): MultiScaleDeformableAttention(\r\n              (dropout): Dropout(p=0.0, inplace=False)\r\n              (sampling_offsets): Linear(in_features=256, out_features=256, bias=True)\r\n              (attention_weights): Linear(in_features=256, out_features=128, bias=True)\r\n              (value_proj): Linear(in_features=256, out_features=256, bias=True)\r\n              (output_proj): Linear(in_features=256, out_features=256, bias=True)\r\n            )\r\n          )\r\n          (ffns): ModuleList(\r\n            (0): FFN(\r\n              (activation): ReLU(inplace=True)\r\n              (layers): Sequential(\r\n                (0): Sequential(\r\n                  (0): Linear(in_features=256, out_features=2048, bias=True)\r\n                  (1): ReLU(inplace=True)\r\n                  (2): Dropout(p=0.0, inplace=False)\r\n                )\r\n                (1): Linear(in_features=2048, out_features=256, bias=True)\r\n                (2): Dropout(p=0.0, inplace=False)\r\n              )\r\n            )\r\n          )\r\n          (norms): ModuleList(\r\n            (0): LayerNorm((256,), eps=1e-05, elementwise_affine=True)\r\n            (1): LayerNorm((256,), eps=1e-05, elementwise_affine=True)\r\n          )\r\n        )\r\n      )\r\n    )\r\n    (decoder): DINOTransformerDecoder(\r\n      (layers): ModuleList(\r\n        (0): GatedTransformerLayer(\r\n          (attentions): ModuleList(\r\n            (0): MultiheadAttention(\r\n              (attn): MultiheadAttention(\r\n                (out_proj): NonDynamicallyQuantizableLinear(in_features=256, out_features=256, bias=True)\r\n              )\r\n              (proj_drop): Dropout(p=0.0, inplace=False)\r\n            )\r\n            (1): MultiScaleDeformableAttention(\r\n              (dropout): Dropout(p=0.0, inplace=False)\r\n              (sampling_offsets): Linear(in_features=256, out_features=256, bias=True)\r\n              (attention_weights): Linear(in_features=256, out_features=128, bias=True)\r\n              (value_proj): Linear(in_features=256, out_features=256, bias=True)\r\n              (output_proj): Linear(in_features=256, out_features=256, bias=True)\r\n            )\r\n            (2): GatedMultiheadAttention(\r\n              (attn): MultiheadAttention(\r\n                (out_proj): NonDynamicallyQuantizableLinear(in_features=256, out_features=256, bias=True)\r\n              )\r\n              (proj_drop): Dropout(p=0.0, inplace=False)\r\n            )\r\n          )\r\n          (ffns): ModuleList(\r\n            (0): GatedFFN(\r\n              (activation): ReLU(inplace=True)\r\n              (ffn): Sequential(\r\n                (0): Sequential(\r\n                  (0): Linear(in_features=256, out_features=2048, bias=True)\r\n                  (1): ReLU(inplace=True)\r\n                  (2): Dropout(p=0.0, inplace=False)\r\n                )\r\n                (1): Linear(in_features=2048, out_features=256, bias=True)\r\n                (2): Dropout(p=0.0, inplace=False)\r\n              )\r\n            )\r\n            (1): FFN(\r\n              (activation): ReLU(inplace=True)\r\n              (layers): Sequential(\r\n                (0): Sequential(\r\n                  (0): Linear(in_features=256, out_features=2048, bias=True)\r\n                  (1): ReLU(inplace=True)\r\n                  (2): Dropout(p=0.0, inplace=False)\r\n                )\r\n                (1): Linear(in_features=2048, out_features=256, bias=True)\r\n                (2): Dropout(p=0.0, inplace=False)\r\n              )\r\n            )\r\n          )\r\n          (norms): ModuleList(\r\n            (0): LayerNorm((256,), eps=1e-05, elementwise_affine=True)\r\n            (1): LayerNorm((256,), eps=1e-05, elementwise_affine=True)\r\n            (2): LayerNorm((256,), eps=1e-05, elementwise_affine=True)\r\n            (3): LayerNorm((256,), eps=1e-05, elementwise_affine=True)\r\n            (4): LayerNorm((256,), eps=1e-05, elementwise_affine=True)\r\n          )\r\n        )\r\n        (1): GatedTransformerLayer(\r\n          (attentions): ModuleList(\r\n            (0): MultiheadAttention(\r\n              (attn): MultiheadAttention(\r\n                (out_proj): NonDynamicallyQuantizableLinear(in_features=256, out_features=256, bias=True)\r\n              )\r\n              (proj_drop): Dropout(p=0.0, inplace=False)\r\n            )\r\n            (1): MultiScaleDeformableAttention(\r\n              (dropout): Dropout(p=0.0, inplace=False)\r\n              (sampling_offsets): Linear(in_features=256, out_features=256, bias=True)\r\n              (attention_weights): Linear(in_features=256, out_features=128, bias=True)\r\n              (value_proj): Linear(in_features=256, out_features=256, bias=True)\r\n              (output_proj): Linear(in_features=256, out_features=256, bias=True)\r\n            )\r\n            (2): GatedMultiheadAttention(\r\n              (attn): MultiheadAttention(\r\n                (out_proj): NonDynamicallyQuantizableLinear(in_features=256, out_features=256, bias=True)\r\n              )\r\n              (proj_drop): Dropout(p=0.0, inplace=False)\r\n            )\r\n          )\r\n          (ffns): ModuleList(\r\n            (0): GatedFFN(\r\n              (activation): ReLU(inplace=True)\r\n              (ffn): Sequential(\r\n                (0): Sequential(\r\n                  (0): Linear(in_features=256, out_features=2048, bias=True)\r\n                  (1): ReLU(inplace=True)\r\n                  (2): Dropout(p=0.0, inplace=False)\r\n                )\r\n                (1): Linear(in_features=2048, out_features=256, bias=True)\r\n                (2): Dropout(p=0.0, inplace=False)\r\n              )\r\n            )\r\n            (1): FFN(\r\n              (activation): ReLU(inplace=True)\r\n              (layers): Sequential(\r\n                (0): Sequential(\r\n                  (0): Linear(in_features=256, out_features=2048, bias=True)\r\n                  (1): ReLU(inplace=True)\r\n                  (2): Dropout(p=0.0, inplace=False)\r\n                )\r\n                (1): Linear(in_features=2048, out_features=256, bias=True)\r\n                (2): Dropout(p=0.0, inplace=False)\r\n              )\r\n            )\r\n          )\r\n          (norms): ModuleList(\r\n            (0): LayerNorm((256,), eps=1e-05, elementwise_affine=True)\r\n            (1): LayerNorm((256,), eps=1e-05, elementwise_affine=True)\r\n            (2): LayerNorm((256,), eps=1e-05, elementwise_affine=True)\r\n            (3): LayerNorm((256,), eps=1e-05, elementwise_affine=True)\r\n            (4): LayerNorm((256,), eps=1e-05, elementwise_affine=True)\r\n          )\r\n        )\r\n        (2): GatedTransformerLayer(\r\n          (attentions): ModuleList(\r\n            (0): MultiheadAttention(\r\n              (attn): MultiheadAttention(\r\n                (out_proj): NonDynamicallyQuantizableLinear(in_features=256, out_features=256, bias=True)\r\n              )\r\n              (proj_drop): Dropout(p=0.0, inplace=False)\r\n            )\r\n            (1): MultiScaleDeformableAttention(\r\n              (dropout): Dropout(p=0.0, inplace=False)\r\n              (sampling_offsets): Linear(in_features=256, out_features=256, bias=True)\r\n              (attention_weights): Linear(in_features=256, out_features=128, bias=True)\r\n              (value_proj): Linear(in_features=256, out_features=256, bias=True)\r\n              (output_proj): Linear(in_features=256, out_features=256, bias=True)\r\n            )\r\n            (2): GatedMultiheadAttention(\r\n              (attn): MultiheadAttention(\r\n                (out_proj): NonDynamicallyQuantizableLinear(in_features=256, out_features=256, bias=True)\r\n              )\r\n              (proj_drop): Dropout(p=0.0, inplace=False)\r\n            )\r\n          )\r\n          (ffns): ModuleList(\r\n            (0): GatedFFN(\r\n              (activation): ReLU(inplace=True)\r\n              (ffn): Sequential(\r\n                (0): Sequential(\r\n                  (0): Linear(in_features=256, out_features=2048, bias=True)\r\n                  (1): ReLU(inplace=True)\r\n                  (2): Dropout(p=0.0, inplace=False)\r\n                )\r\n                (1): Linear(in_features=2048, out_features=256, bias=True)\r\n                (2): Dropout(p=0.0, inplace=False)\r\n              )\r\n            )\r\n            (1): FFN(\r\n              (activation): ReLU(inplace=True)\r\n              (layers): Sequential(\r\n                (0): Sequential(\r\n                  (0): Linear(in_features=256, out_features=2048, bias=True)\r\n                  (1): ReLU(inplace=True)\r\n                  (2): Dropout(p=0.0, inplace=False)\r\n                )\r\n                (1): Linear(in_features=2048, out_features=256, bias=True)\r\n                (2): Dropout(p=0.0, inplace=False)\r\n              )\r\n            )\r\n          )\r\n          (norms): ModuleList(\r\n            (0): LayerNorm((256,), eps=1e-05, elementwise_affine=True)\r\n            (1): LayerNorm((256,), eps=1e-05, elementwise_affine=True)\r\n            (2): LayerNorm((256,), eps=1e-05, elementwise_affine=True)\r\n            (3): LayerNorm((256,), eps=1e-05, elementwise_affine=True)\r\n            (4): LayerNorm((256,), eps=1e-05, elementwise_affine=True)\r\n          )\r\n        )\r\n        (3): GatedTransformerLayer(\r\n          (attentions): ModuleList(\r\n            (0): MultiheadAttention(\r\n              (attn): MultiheadAttention(\r\n                (out_proj): NonDynamicallyQuantizableLinear(in_features=256, out_features=256, bias=True)\r\n              )\r\n              (proj_drop): Dropout(p=0.0, inplace=False)\r\n            )\r\n            (1): MultiScaleDeformableAttention(\r\n              (dropout): Dropout(p=0.0, inplace=False)\r\n              (sampling_offsets): Linear(in_features=256, out_features=256, bias=True)\r\n              (attention_weights): Linear(in_features=256, out_features=128, bias=True)\r\n              (value_proj): Linear(in_features=256, out_features=256, bias=True)\r\n              (output_proj): Linear(in_features=256, out_features=256, bias=True)\r\n            )\r\n            (2): GatedMultiheadAttention(\r\n              (attn): MultiheadAttention(\r\n                (out_proj): NonDynamicallyQuantizableLinear(in_features=256, out_features=256, bias=True)\r\n              )\r\n              (proj_drop): Dropout(p=0.0, inplace=False)\r\n            )\r\n          )\r\n          (ffns): ModuleList(\r\n            (0): GatedFFN(\r\n              (activation): ReLU(inplace=True)\r\n              (ffn): Sequential(\r\n                (0): Sequential(\r\n                  (0): Linear(in_features=256, out_features=2048, bias=True)\r\n                  (1): ReLU(inplace=True)\r\n                  (2): Dropout(p=0.0, inplace=False)\r\n                )\r\n                (1): Linear(in_features=2048, out_features=256, bias=True)\r\n                (2): Dropout(p=0.0, inplace=False)\r\n              )\r\n            )\r\n            (1): FFN(\r\n              (activation): ReLU(inplace=True)\r\n              (layers): Sequential(\r\n                (0): Sequential(\r\n                  (0): Linear(in_features=256, out_features=2048, bias=True)\r\n                  (1): ReLU(inplace=True)\r\n                  (2): Dropout(p=0.0, inplace=False)\r\n                )\r\n                (1): Linear(in_features=2048, out_features=256, bias=True)\r\n                (2): Dropout(p=0.0, inplace=False)\r\n              )\r\n            )\r\n          )\r\n          (norms): ModuleList(\r\n            (0): LayerNorm((256,), eps=1e-05, elementwise_affine=True)\r\n            (1): LayerNorm((256,), eps=1e-05, elementwise_affine=True)\r\n            (2): LayerNorm((256,), eps=1e-05, elementwise_affine=True)\r\n            (3): LayerNorm((256,), eps=1e-05, elementwise_affine=True)\r\n            (4): LayerNorm((256,), eps=1e-05, elementwise_affine=True)\r\n          )\r\n        )\r\n        (4): GatedTransformerLayer(\r\n          (attentions): ModuleList(\r\n            (0): MultiheadAttention(\r\n              (attn): MultiheadAttention(\r\n                (out_proj): NonDynamicallyQuantizableLinear(in_features=256, out_features=256, bias=True)\r\n              )\r\n              (proj_drop): Dropout(p=0.0, inplace=False)\r\n            )\r\n            (1): MultiScaleDeformableAttention(\r\n              (dropout): Dropout(p=0.0, inplace=False)\r\n              (sampling_offsets): Linear(in_features=256, out_features=256, bias=True)\r\n              (attention_weights): Linear(in_features=256, out_features=128, bias=True)\r\n              (value_proj): Linear(in_features=256, out_features=256, bias=True)\r\n              (output_proj): Linear(in_features=256, out_features=256, bias=True)\r\n            )\r\n            (2): GatedMultiheadAttention(\r\n              (attn): MultiheadAttention(\r\n                (out_proj): NonDynamicallyQuantizableLinear(in_features=256, out_features=256, bias=True)\r\n              )\r\n              (proj_drop): Dropout(p=0.0, inplace=False)\r\n            )\r\n          )\r\n          (ffns): ModuleList(\r\n            (0): GatedFFN(\r\n              (activation): ReLU(inplace=True)\r\n              (ffn): Sequential(\r\n                (0): Sequential(\r\n                  (0): Linear(in_features=256, out_features=2048, bias=True)\r\n                  (1): ReLU(inplace=True)\r\n                  (2): Dropout(p=0.0, inplace=False)\r\n                )\r\n                (1): Linear(in_features=2048, out_features=256, bias=True)\r\n                (2): Dropout(p=0.0, inplace=False)\r\n              )\r\n            )\r\n            (1): FFN(\r\n              (activation): ReLU(inplace=True)\r\n              (layers): Sequential(\r\n                (0): Sequential(\r\n                  (0): Linear(in_features=256, out_features=2048, bias=True)\r\n                  (1): ReLU(inplace=True)\r\n                  (2): Dropout(p=0.0, inplace=False)\r\n                )\r\n                (1): Linear(in_features=2048, out_features=256, bias=True)\r\n                (2): Dropout(p=0.0, inplace=False)\r\n              )\r\n            )\r\n          )\r\n          (norms): ModuleList(\r\n            (0): LayerNorm((256,), eps=1e-05, elementwise_affine=True)\r\n            (1): LayerNorm((256,), eps=1e-05, elementwise_affine=True)\r\n            (2): LayerNorm((256,), eps=1e-05, elementwise_affine=True)\r\n            (3): LayerNorm((256,), eps=1e-05, elementwise_affine=True)\r\n            (4): LayerNorm((256,), eps=1e-05, elementwise_affine=True)\r\n          )\r\n        )\r\n        (5): GatedTransformerLayer(\r\n          (attentions): ModuleList(\r\n            (0): MultiheadAttention(\r\n              (attn): MultiheadAttention(\r\n                (out_proj): NonDynamicallyQuantizableLinear(in_features=256, out_features=256, bias=True)\r\n              )\r\n              (proj_drop): Dropout(p=0.0, inplace=False)\r\n            )\r\n            (1): MultiScaleDeformableAttention(\r\n              (dropout): Dropout(p=0.0, inplace=False)\r\n              (sampling_offsets): Linear(in_features=256, out_features=256, bias=True)\r\n              (attention_weights): Linear(in_features=256, out_features=128, bias=True)\r\n              (value_proj): Linear(in_features=256, out_features=256, bias=True)\r\n              (output_proj): Linear(in_features=256, out_features=256, bias=True)\r\n            )\r\n            (2): GatedMultiheadAttention(\r\n              (attn): MultiheadAttention(\r\n                (out_proj): NonDynamicallyQuantizableLinear(in_features=256, out_features=256, bias=True)\r\n              )\r\n              (proj_drop): Dropout(p=0.0, inplace=False)\r\n            )\r\n          )\r\n          (ffns): ModuleList(\r\n            (0): GatedFFN(\r\n              (activation): ReLU(inplace=True)\r\n              (ffn): Sequential(\r\n                (0): Sequential(\r\n                  (0): Linear(in_features=256, out_features=2048, bias=True)\r\n                  (1): ReLU(inplace=True)\r\n                  (2): Dropout(p=0.0, inplace=False)\r\n                )\r\n                (1): Linear(in_features=2048, out_features=256, bias=True)\r\n                (2): Dropout(p=0.0, inplace=False)\r\n              )\r\n            )\r\n            (1): FFN(\r\n              (activation): ReLU(inplace=True)\r\n              (layers): Sequential(\r\n                (0): Sequential(\r\n                  (0): Linear(in_features=256, out_features=2048, bias=True)\r\n                  (1): ReLU(inplace=True)\r\n                  (2): Dropout(p=0.0, inplace=False)\r\n                )\r\n                (1): Linear(in_features=2048, out_features=256, bias=True)\r\n                (2): Dropout(p=0.0, inplace=False)\r\n              )\r\n            )\r\n          )\r\n          (norms): ModuleList(\r\n            (0): LayerNorm((256,), eps=1e-05, elementwise_affine=True)\r\n            (1): LayerNorm((256,), eps=1e-05, elementwise_affine=True)\r\n            (2): LayerNorm((256,), eps=1e-05, elementwise_affine=True)\r\n            (3): LayerNorm((256,), eps=1e-05, elementwise_affine=True)\r\n            (4): LayerNorm((256,), eps=1e-05, elementwise_affine=True)\r\n          )\r\n        )\r\n      )\r\n      (ref_point_head): MLP(\r\n        (layers): ModuleList(\r\n          (0): Linear(in_features=512, out_features=256, bias=True)\r\n          (1): Linear(in_features=256, out_features=256, bias=True)\r\n        )\r\n      )\r\n      (norm): LayerNorm((256,), eps=1e-05, elementwise_affine=True)\r\n      (class_embed): ModuleList(\r\n        (0): ClassEmbed(\r\n          (image_embed_proj): Identity()\r\n          (lang_embed_proj): Linear(in_features=768, out_features=256, bias=True)\r\n          (lang_bias): ParameterList(  (0): Parameter containing: [torch.float32 of size 768])\r\n          (lang_bias0): ParameterList(  (0): Parameter containing: [torch.float32 of size 1])\r\n          (lang_log_scale): ParameterList(  (0): Parameter containing: [torch.float32 of size 1])\r\n        )\r\n        (1): ClassEmbed(\r\n          (image_embed_proj): Identity()\r\n          (lang_embed_proj): Linear(in_features=768, out_features=256, bias=True)\r\n          (lang_bias): ParameterList(  (0): Parameter containing: [torch.float32 of size 768])\r\n          (lang_bias0): ParameterList(  (0): Parameter containing: [torch.float32 of size 1])\r\n          (lang_log_scale): ParameterList(  (0): Parameter containing: [torch.float32 of size 1])\r\n        )\r\n        (2): ClassEmbed(\r\n          (image_embed_proj): Identity()\r\n          (lang_embed_proj): Linear(in_features=768, out_features=256, bias=True)\r\n          (lang_bias): ParameterList(  (0): Parameter containing: [torch.float32 of size 768])\r\n          (lang_bias0): ParameterList(  (0): Parameter containing: [torch.float32 of size 1])\r\n          (lang_log_scale): ParameterList(  (0): Parameter containing: [torch.float32 of size 1])\r\n        )\r\n        (3): ClassEmbed(\r\n          (image_embed_proj): Identity()\r\n          (lang_embed_proj): Linear(in_features=768, out_features=256, bias=True)\r\n          (lang_bias): ParameterList(  (0): Parameter containing: [torch.float32 of size 768])\r\n          (lang_bias0): ParameterList(  (0): Parameter containing: [torch.float32 of size 1])\r\n          (lang_log_scale): ParameterList(  (0): Parameter containing: [torch.float32 of size 1])\r\n        )\r\n        (4): ClassEmbed(\r\n          (image_embed_proj): Identity()\r\n          (lang_embed_proj): Linear(in_features=768, out_features=256, bias=True)\r\n          (lang_bias): ParameterList(  (0): Parameter containing: [torch.float32 of size 768])\r\n          (lang_bias0): ParameterList(  (0): Parameter containing: [torch.float32 of size 1])\r\n          (lang_log_scale): ParameterList(  (0): Parameter containing: [torch.float32 of size 1])\r\n        )\r\n        (5): ClassEmbed(\r\n          (image_embed_proj): Identity()\r\n          (lang_embed_proj): Linear(in_features=768, out_features=256, bias=True)\r\n          (lang_bias): ParameterList(  (0): Parameter containing: [torch.float32 of size 768])\r\n          (lang_bias0): ParameterList(  (0): Parameter containing: [torch.float32 of size 1])\r\n          (lang_log_scale): ParameterList(  (0): Parameter containing: [torch.float32 of size 1])\r\n        )\r\n        (6): ClassEmbed(\r\n          (image_embed_proj): Identity()\r\n          (lang_embed_proj): Linear(in_features=768, out_features=256, bias=True)\r\n          (lang_bias): ParameterList(  (0): Parameter containing: [torch.float32 of size 768])\r\n          (lang_bias0): ParameterList(  (0): Parameter containing: [torch.float32 of size 1])\r\n          (lang_log_scale): ParameterList(  (0): Parameter containing: [torch.float32 of size 1])\r\n        )\r\n      )\r\n      (bbox_embed): ModuleList(\r\n        (0): MLP(\r\n          (layers): ModuleList(\r\n            (0): Linear(in_features=256, out_features=256, bias=True)\r\n            (1): Linear(in_features=256, out_features=256, bias=True)\r\n            (2): Linear(in_features=256, out_features=4, bias=True)\r\n          )\r\n        )\r\n        (1): MLP(\r\n          (layers): ModuleList(\r\n            (0): Linear(in_features=256, out_features=256, bias=True)\r\n            (1): Linear(in_features=256, out_features=256, bias=True)\r\n            (2): Linear(in_features=256, out_features=4, bias=True)\r\n          )\r\n        )\r\n        (2): MLP(\r\n          (layers): ModuleList(\r\n            (0): Linear(in_features=256, out_features=256, bias=True)\r\n            (1): Linear(in_features=256, out_features=256, bias=True)\r\n            (2): Linear(in_features=256, out_features=4, bias=True)\r\n          )\r\n        )\r\n        (3): MLP(\r\n          (layers): ModuleList(\r\n            (0): Linear(in_features=256, out_features=256, bias=True)\r\n            (1): Linear(in_features=256, out_features=256, bias=True)\r\n            (2): Linear(in_features=256, out_features=4, bias=True)\r\n          )\r\n        )\r\n        (4): MLP(\r\n          (layers): ModuleList(\r\n            (0): Linear(in_features=256, out_features=256, bias=True)\r\n            (1): Linear(in_features=256, out_features=256, bias=True)\r\n            (2): Linear(in_features=256, out_features=4, bias=True)\r\n          )\r\n        )\r\n        (5): MLP(\r\n          (layers): ModuleList(\r\n            (0): Linear(in_features=256, out_features=256, bias=True)\r\n            (1): Linear(in_features=256, out_features=256, bias=True)\r\n            (2): Linear(in_features=256, out_features=4, bias=True)\r\n          )\r\n        )\r\n        (6): MLP(\r\n          (layers): ModuleList(\r\n            (0): Linear(in_features=256, out_features=256, bias=True)\r\n            (1): Linear(in_features=256, out_features=256, bias=True)\r\n            (2): Linear(in_features=256, out_features=4, bias=True)\r\n          )\r\n        )\r\n      )\r\n    )\r\n    (tgt_embed): Embedding(900, 256)\r\n    (enc_output): Linear(in_features=256, out_features=256, bias=True)\r\n    (enc_output_norm): LayerNorm((256,), eps=1e-05, elementwise_affine=True)\r\n  )\r\n  (class_embed): ModuleList(\r\n    (0): ClassEmbed(\r\n      (image_embed_proj): Identity()\r\n      (lang_embed_proj): Linear(in_features=768, out_features=256, bias=True)\r\n      (lang_bias): ParameterList(  (0): Parameter containing: [torch.float32 of size 768])\r\n      (lang_bias0): ParameterList(  (0): Parameter containing: [torch.float32 of size 1])\r\n      (lang_log_scale): ParameterList(  (0): Parameter containing: [torch.float32 of size 1])\r\n    )\r\n    (1): ClassEmbed(\r\n      (image_embed_proj): Identity()\r\n      (lang_embed_proj): Linear(in_features=768, out_features=256, bias=True)\r\n      (lang_bias): ParameterList(  (0): Parameter containing: [torch.float32 of size 768])\r\n      (lang_bias0): ParameterList(  (0): Parameter containing: [torch.float32 of size 1])\r\n      (lang_log_scale): ParameterList(  (0): Parameter containing: [torch.float32 of size 1])\r\n    )\r\n    (2): ClassEmbed(\r\n      (image_embed_proj): Identity()\r\n      (lang_embed_proj): Linear(in_features=768, out_features=256, bias=True)\r\n      (lang_bias): ParameterList(  (0): Parameter containing: [torch.float32 of size 768])\r\n      (lang_bias0): ParameterList(  (0): Parameter containing: [torch.float32 of size 1])\r\n      (lang_log_scale): ParameterList(  (0): Parameter containing: [torch.float32 of size 1])\r\n    )\r\n    (3): ClassEmbed(\r\n      (image_embed_proj): Identity()\r\n      (lang_embed_proj): Linear(in_features=768, out_features=256, bias=True)\r\n      (lang_bias): ParameterList(  (0): Parameter containing: [torch.float32 of size 768])\r\n      (lang_bias0): ParameterList(  (0): Parameter containing: [torch.float32 of size 1])\r\n      (lang_log_scale): ParameterList(  (0): Parameter containing: [torch.float32 of size 1])\r\n    )\r\n    (4): ClassEmbed(\r\n      (image_embed_proj): Identity()\r\n      (lang_embed_proj): Linear(in_features=768, out_features=256, bias=True)\r\n      (lang_bias): ParameterList(  (0): Parameter containing: [torch.float32 of size 768])\r\n      (lang_bias0): ParameterList(  (0): Parameter containing: [torch.float32 of size 1])\r\n      (lang_log_scale): ParameterList(  (0): Parameter containing: [torch.float32 of size 1])\r\n    )\r\n    (5): ClassEmbed(\r\n      (image_embed_proj): Identity()\r\n      (lang_embed_proj): Linear(in_features=768, out_features=256, bias=True)\r\n      (lang_bias): ParameterList(  (0): Parameter containing: [torch.float32 of size 768])\r\n      (lang_bias0): ParameterList(  (0): Parameter containing: [torch.float32 of size 1])\r\n      (lang_log_scale): ParameterList(  (0): Parameter containing: [torch.float32 of size 1])\r\n    )\r\n    (6): ClassEmbed(\r\n      (image_embed_proj): Identity()\r\n      (lang_embed_proj): Linear(in_features=768, out_features=256, bias=True)\r\n      (lang_bias): ParameterList(  (0): Parameter containing: [torch.float32 of size 768])\r\n      (lang_bias0): ParameterList(  (0): Parameter containing: [torch.float32 of size 1])\r\n      (lang_log_scale): ParameterList(  (0): Parameter containing: [torch.float32 of size 1])\r\n    )\r\n  )\r\n  (bbox_embed): ModuleList(\r\n    (0): MLP(\r\n      (layers): ModuleList(\r\n        (0): Linear(in_features=256, out_features=256, bias=True)\r\n        (1): Linear(in_features=256, out_features=256, bias=True)\r\n        (2): Linear(in_features=256, out_features=4, bias=True)\r\n      )\r\n    )\r\n    (1): MLP(\r\n      (layers): ModuleList(\r\n        (0): Linear(in_features=256, out_features=256, bias=True)\r\n        (1): Linear(in_features=256, out_features=256, bias=True)\r\n        (2): Linear(in_features=256, out_features=4, bias=True)\r\n      )\r\n    )\r\n    (2): MLP(\r\n      (layers): ModuleList(\r\n        (0): Linear(in_features=256, out_features=256, bias=True)\r\n        (1): Linear(in_features=256, out_features=256, bias=True)\r\n        (2): Linear(in_features=256, out_features=4, bias=True)\r\n      )\r\n    )\r\n    (3): MLP(\r\n      (layers): ModuleList(\r\n        (0): Linear(in_features=256, out_features=256, bias=True)\r\n        (1): Linear(in_features=256, out_features=256, bias=True)\r\n        (2): Linear(in_features=256, out_features=4, bias=True)\r\n      )\r\n    )\r\n    (4): MLP(\r\n      (layers): ModuleList(\r\n        (0): Linear(in_features=256, out_features=256, bias=True)\r\n        (1): Linear(in_features=256, out_features=256, bias=True)\r\n        (2): Linear(in_features=256, out_features=4, bias=True)\r\n      )\r\n    )\r\n    (5): MLP(\r\n      (layers): ModuleList(\r\n        (0): Linear(in_features=256, out_features=256, bias=True)\r\n        (1): Linear(in_features=256, out_features=256, bias=True)\r\n        (2): Linear(in_features=256, out_features=4, bias=True)\r\n      )\r\n    )\r\n    (6): MLP(\r\n      (layers): ModuleList(\r\n        (0): Linear(in_features=256, out_features=256, bias=True)\r\n        (1): Linear(in_features=256, out_features=256, bias=True)\r\n        (2): Linear(in_features=256, out_features=4, bias=True)\r\n      )\r\n    )\r\n  )\r\n  (criterion): Criterion DINOCriterion\r\n      matcher: Matcher HungarianMatcher\r\n          cost_class: 2.0\r\n          cost_bbox: 5.0\r\n          cost_giou: 2.0\r\n          cost_class_type: focal_loss_cost\r\n          focal cost alpha: 0.25\r\n          focal cost gamma: 2.0\r\n      losses: ['class', 'boxes']\r\n   
…
